…
pytorch_fn.py: Module: forward(): call()
cell.py: Cell: call(): Cell call self.steps:  4
cell.py: Cell: call(): Cell call out_inp_list:  [[0, 1], [0, 1, 2], [0, 1, 2, 3], [0, 1, 2, 3, 4]]
cell.py: Cell: call(): preprocess0
pytorch_fn.py: Module: forward(): call()
pytorch_fn.py: Module: call():
cell.py: Cell: call(): preprocess1
pytorch_fn.py: Module: forward(): call()
pytorch_fn.py: Module: call():
cell.py: Cell: call(): j, inp:  0 0
cell.py: Cell: call(): op:  MixedOp(
  (none): Zero()
  (max_pool_3x3): Seq(
    (0): MaxPool2d(kernel_size=3, stride=1, padding=1, dilation=1, ceil_mode=False)
    (1): BatchNorm2d(16, eps=1e-05, momentum=0.1, affine=False, track_running_stats=True)
  )
  (avg_pool_3x3): Seq(
    (0): AvgPool2d(kernel_size=3, stride=1, padding=1)
    (1): BatchNorm2d(16, eps=1e-05, momentum=0.1, affine=False, track_running_stats=True)
  )
  (skip_connect): Identity()
  (sep_conv_3x3): SeparatedConv(
    (0_conv1): Conv2d(16, 16, kernel_size=(3, 3), stride=(1, 1), padding=(1, 1), groups=16, bias=False)
    (0_conv2): Conv2d(16, 16, kernel_size=(1, 1), stride=(1, 1), bias=False)
    (0_batch): BatchNorm2d(16, eps=1e-05, momentum=0.1, affine=False, track_running_stats=True)
    (0_relu): Relu()
  )
  (sep_conv_5x5): SeparatedConv(
    (0_conv1): Conv2d(16, 16, kernel_size=(5, 5), stride=(1, 1), padding=(2, 2), groups=16, bias=False)
    (0_conv2): Conv2d(16, 16, kernel_size=(1, 1), stride=(1, 1), bias=False)
    (0_batch): BatchNorm2d(16, eps=1e-05, momentum=0.1, affine=False, track_running_stats=True)
    (0_relu): Relu()
  )
  (dil_conv_3x3): DilConv(
    (relu): Relu()
    (conv1): Conv2d(16, 16, kernel_size=(3, 3), stride=(1, 1), padding=(2, 2), dilation=(2, 2), groups=16, bias=False)
    (conv2): Conv2d(16, 16, kernel_size=(1, 1), stride=(1, 1), bias=False)
    (batch): BatchNorm2d(16, eps=1e-05, momentum=0.1, affine=False, track_running_stats=True)
  )
  (dil_conv_5x5): DilConv(
    (relu): Relu()
    (conv1): Conv2d(16, 16, kernel_size=(5, 5), stride=(1, 1), padding=(4, 4), dilation=(2, 2), groups=16, bias=False)
    (conv2): Conv2d(16, 16, kernel_size=(1, 1), stride=(1, 1), bias=False)
    (batch): BatchNorm2d(16, eps=1e-05, momentum=0.1, affine=False, track_running_stats=True)
  )
)
pytorch_fn.py: Module: forward(): call()
mix_ops.py: MixedOp: call(): for idx, op in enumerate(self.children()):  0 Zero() <class 'vega.modules.operators.functions.pytorch_fn.Zero'>
mix_ops.py: MixedOp: call(): for idx, op in enumerate(self.children()):  1 Seq(
  (0): MaxPool2d(kernel_size=3, stride=1, padding=1, dilation=1, ceil_mode=False)
  (1): BatchNorm2d(16, eps=1e-05, momentum=0.1, affine=False, track_running_stats=True)
) <class 'vega.modules.operators.conv.Seq'>
pytorch_fn.py: Module: forward(): call()
pytorch_fn.py: Module: call():
mix_ops.py: MixedOp: call(): for idx, op in enumerate(self.children()):  2 Seq(
  (0): AvgPool2d(kernel_size=3, stride=1, padding=1)
  (1): BatchNorm2d(16, eps=1e-05, momentum=0.1, affine=False, track_running_stats=True)
) <class 'vega.modules.operators.conv.Seq'>
pytorch_fn.py: Module: forward(): call()
pytorch_fn.py: Module: call():
mix_ops.py: MixedOp: call(): for idx, op in enumerate(self.children()):  3 Identity() <class 'vega.modules.operators.functions.pytorch_fn.Identity'>
mix_ops.py: MixedOp: call(): for idx, op in enumerate(self.children()):  4 SeparatedConv(
  (0_conv1): Conv2d(16, 16, kernel_size=(3, 3), stride=(1, 1), padding=(1, 1), groups=16, bias=False)
  (0_conv2): Conv2d(16, 16, kernel_size=(1, 1), stride=(1, 1), bias=False)
  (0_batch): BatchNorm2d(16, eps=1e-05, momentum=0.1, affine=False, track_running_stats=True)
  (0_relu): Relu()
) <class 'vega.modules.operators.conv.SeparatedConv'>
pytorch_fn.py: Module: forward(): call()
pytorch_fn.py: Module: call():
mix_ops.py: MixedOp: call(): for idx, op in enumerate(self.children()):  5 SeparatedConv(
  (0_conv1): Conv2d(16, 16, kernel_size=(5, 5), stride=(1, 1), padding=(2, 2), groups=16, bias=False)
  (0_conv2): Conv2d(16, 16, kernel_size=(1, 1), stride=(1, 1), bias=False)
  (0_batch): BatchNorm2d(16, eps=1e-05, momentum=0.1, affine=False, track_running_stats=True)
  (0_relu): Relu()
) <class 'vega.modules.operators.conv.SeparatedConv'>
pytorch_fn.py: Module: forward(): call()
pytorch_fn.py: Module: call():
mix_ops.py: MixedOp: call(): for idx, op in enumerate(self.children()):  6 DilConv(
  (relu): Relu()
  (conv1): Conv2d(16, 16, kernel_size=(3, 3), stride=(1, 1), padding=(2, 2), dilation=(2, 2), groups=16, bias=False)
  (conv2): Conv2d(16, 16, kernel_size=(1, 1), stride=(1, 1), bias=False)
  (batch): BatchNorm2d(16, eps=1e-05, momentum=0.1, affine=False, track_running_stats=True)
) <class 'vega.modules.operators.conv.DilConv'>
pytorch_fn.py: Module: forward(): call()
pytorch_fn.py: Module: call():
mix_ops.py: MixedOp: call(): for idx, op in enumerate(self.children()):  7 DilConv(
  (relu): Relu()
  (conv1): Conv2d(16, 16, kernel_size=(5, 5), stride=(1, 1), padding=(4, 4), dilation=(2, 2), groups=16, bias=False)
  (conv2): Conv2d(16, 16, kernel_size=(1, 1), stride=(1, 1), bias=False)
  (batch): BatchNorm2d(16, eps=1e-05, momentum=0.1, affine=False, track_running_stats=True)
) <class 'vega.modules.operators.conv.DilConv'>
pytorch_fn.py: Module: forward(): call()
pytorch_fn.py: Module: call():
cell.py: Cell: call(): j, inp:  1 1
cell.py: Cell: call(): op:  MixedOp(
  (none): Zero()
  (max_pool_3x3): Seq(
    (0): MaxPool2d(kernel_size=3, stride=1, padding=1, dilation=1, ceil_mode=False)
    (1): BatchNorm2d(16, eps=1e-05, momentum=0.1, affine=False, track_running_stats=True)
  )
  (avg_pool_3x3): Seq(
    (0): AvgPool2d(kernel_size=3, stride=1, padding=1)
    (1): BatchNorm2d(16, eps=1e-05, momentum=0.1, affine=False, track_running_stats=True)
  )
  (skip_connect): Identity()
  (sep_conv_3x3): SeparatedConv(
    (0_conv1): Conv2d(16, 16, kernel_size=(3, 3), stride=(1, 1), padding=(1, 1), groups=16, bias=False)
    (0_conv2): Conv2d(16, 16, kernel_size=(1, 1), stride=(1, 1), bias=False)
    (0_batch): BatchNorm2d(16, eps=1e-05, momentum=0.1, affine=False, track_running_stats=True)
    (0_relu): Relu()
  )
  (sep_conv_5x5): SeparatedConv(
    (0_conv1): Conv2d(16, 16, kernel_size=(5, 5), stride=(1, 1), padding=(2, 2), groups=16, bias=False)
    (0_conv2): Conv2d(16, 16, kernel_size=(1, 1), stride=(1, 1), bias=False)
    (0_batch): BatchNorm2d(16, eps=1e-05, momentum=0.1, affine=False, track_running_stats=True)
    (0_relu): Relu()
  )
  (dil_conv_3x3): DilConv(
    (relu): Relu()
    (conv1): Conv2d(16, 16, kernel_size=(3, 3), stride=(1, 1), padding=(2, 2), dilation=(2, 2), groups=16, bias=False)
    (conv2): Conv2d(16, 16, kernel_size=(1, 1), stride=(1, 1), bias=False)
    (batch): BatchNorm2d(16, eps=1e-05, momentum=0.1, affine=False, track_running_stats=True)
  )
  (dil_conv_5x5): DilConv(
    (relu): Relu()
    (conv1): Conv2d(16, 16, kernel_size=(5, 5), stride=(1, 1), padding=(4, 4), dilation=(2, 2), groups=16, bias=False)
    (conv2): Conv2d(16, 16, kernel_size=(1, 1), stride=(1, 1), bias=False)
    (batch): BatchNorm2d(16, eps=1e-05, momentum=0.1, affine=False, track_running_stats=True)
  )
)
pytorch_fn.py: Module: forward(): call()
mix_ops.py: MixedOp: call(): for idx, op in enumerate(self.children()):  0 Zero() <class 'vega.modules.operators.functions.pytorch_fn.Zero'>
mix_ops.py: MixedOp: call(): for idx, op in enumerate(self.children()):  1 Seq(
  (0): MaxPool2d(kernel_size=3, stride=1, padding=1, dilation=1, ceil_mode=False)
  (1): BatchNorm2d(16, eps=1e-05, momentum=0.1, affine=False, track_running_stats=True)
) <class 'vega.modules.operators.conv.Seq'>
pytorch_fn.py: Module: forward(): call()
pytorch_fn.py: Module: call():
mix_ops.py: MixedOp: call(): for idx, op in enumerate(self.children()):  2 Seq(
  (0): AvgPool2d(kernel_size=3, stride=1, padding=1)
  (1): BatchNorm2d(16, eps=1e-05, momentum=0.1, affine=False, track_running_stats=True)
) <class 'vega.modules.operators.conv.Seq'>
pytorch_fn.py: Module: forward(): call()
pytorch_fn.py: Module: call():
mix_ops.py: MixedOp: call(): for idx, op in enumerate(self.children()):  3 Identity() <class 'vega.modules.operators.functions.pytorch_fn.Identity'>
mix_ops.py: MixedOp: call(): for idx, op in enumerate(self.children()):  4 SeparatedConv(
  (0_conv1): Conv2d(16, 16, kernel_size=(3, 3), stride=(1, 1), padding=(1, 1), groups=16, bias=False)
  (0_conv2): Conv2d(16, 16, kernel_size=(1, 1), stride=(1, 1), bias=False)
  (0_batch): BatchNorm2d(16, eps=1e-05, momentum=0.1, affine=False, track_running_stats=True)
  (0_relu): Relu()
) <class 'vega.modules.operators.conv.SeparatedConv'>
pytorch_fn.py: Module: forward(): call()
pytorch_fn.py: Module: call():
mix_ops.py: MixedOp: call(): for idx, op in enumerate(self.children()):  5 SeparatedConv(
  (0_conv1): Conv2d(16, 16, kernel_size=(5, 5), stride=(1, 1), padding=(2, 2), groups=16, bias=False)
  (0_conv2): Conv2d(16, 16, kernel_size=(1, 1), stride=(1, 1), bias=False)
  (0_batch): BatchNorm2d(16, eps=1e-05, momentum=0.1, affine=False, track_running_stats=True)
  (0_relu): Relu()
) <class 'vega.modules.operators.conv.SeparatedConv'>
pytorch_fn.py: Module: forward(): call()
pytorch_fn.py: Module: call():
mix_ops.py: MixedOp: call(): for idx, op in enumerate(self.children()):  6 DilConv(
  (relu): Relu()
  (conv1): Conv2d(16, 16, kernel_size=(3, 3), stride=(1, 1), padding=(2, 2), dilation=(2, 2), groups=16, bias=False)
  (conv2): Conv2d(16, 16, kernel_size=(1, 1), stride=(1, 1), bias=False)
  (batch): BatchNorm2d(16, eps=1e-05, momentum=0.1, affine=False, track_running_stats=True)
) <class 'vega.modules.operators.conv.DilConv'>
pytorch_fn.py: Module: forward(): call()
pytorch_fn.py: Module: call():
mix_ops.py: MixedOp: call(): for idx, op in enumerate(self.children()):  7 DilConv(
  (relu): Relu()
  (conv1): Conv2d(16, 16, kernel_size=(5, 5), stride=(1, 1), padding=(4, 4), dilation=(2, 2), groups=16, bias=False)
  (conv2): Conv2d(16, 16, kernel_size=(1, 1), stride=(1, 1), bias=False)
  (batch): BatchNorm2d(16, eps=1e-05, momentum=0.1, affine=False, track_running_stats=True)
) <class 'vega.modules.operators.conv.DilConv'>
pytorch_fn.py: Module: forward(): call()
pytorch_fn.py: Module: call():
cell.py: Cell: call(): j, inp:  0 0
cell.py: Cell: call(): op:  MixedOp(
  (none): Zero()
  (max_pool_3x3): Seq(
    (0): MaxPool2d(kernel_size=3, stride=1, padding=1, dilation=1, ceil_mode=False)
    (1): BatchNorm2d(16, eps=1e-05, momentum=0.1, affine=False, track_running_stats=True)
  )
  (avg_pool_3x3): Seq(
    (0): AvgPool2d(kernel_size=3, stride=1, padding=1)
    (1): BatchNorm2d(16, eps=1e-05, momentum=0.1, affine=False, track_running_stats=True)
  )
  (skip_connect): Identity()
  (sep_conv_3x3): SeparatedConv(
    (0_conv1): Conv2d(16, 16, kernel_size=(3, 3), stride=(1, 1), padding=(1, 1), groups=16, bias=False)
    (0_conv2): Conv2d(16, 16, kernel_size=(1, 1), stride=(1, 1), bias=False)
    (0_batch): BatchNorm2d(16, eps=1e-05, momentum=0.1, affine=False, track_running_stats=True)
    (0_relu): Relu()
  )
  (sep_conv_5x5): SeparatedConv(
    (0_conv1): Conv2d(16, 16, kernel_size=(5, 5), stride=(1, 1), padding=(2, 2), groups=16, bias=False)
    (0_conv2): Conv2d(16, 16, kernel_size=(1, 1), stride=(1, 1), bias=False)
    (0_batch): BatchNorm2d(16, eps=1e-05, momentum=0.1, affine=False, track_running_stats=True)
    (0_relu): Relu()
  )
  (dil_conv_3x3): DilConv(
    (relu): Relu()
    (conv1): Conv2d(16, 16, kernel_size=(3, 3), stride=(1, 1), padding=(2, 2), dilation=(2, 2), groups=16, bias=False)
    (conv2): Conv2d(16, 16, kernel_size=(1, 1), stride=(1, 1), bias=False)
    (batch): BatchNorm2d(16, eps=1e-05, momentum=0.1, affine=False, track_running_stats=True)
  )
  (dil_conv_5x5): DilConv(
    (relu): Relu()
    (conv1): Conv2d(16, 16, kernel_size=(5, 5), stride=(1, 1), padding=(4, 4), dilation=(2, 2), groups=16, bias=False)
    (conv2): Conv2d(16, 16, kernel_size=(1, 1), stride=(1, 1), bias=False)
    (batch): BatchNorm2d(16, eps=1e-05, momentum=0.1, affine=False, track_running_stats=True)
  )
)
pytorch_fn.py: Module: forward(): call()
mix_ops.py: MixedOp: call(): for idx, op in enumerate(self.children()):  0 Zero() <class 'vega.modules.operators.functions.pytorch_fn.Zero'>
mix_ops.py: MixedOp: call(): for idx, op in enumerate(self.children()):  1 Seq(
  (0): MaxPool2d(kernel_size=3, stride=1, padding=1, dilation=1, ceil_mode=False)
  (1): BatchNorm2d(16, eps=1e-05, momentum=0.1, affine=False, track_running_stats=True)
) <class 'vega.modules.operators.conv.Seq'>
pytorch_fn.py: Module: forward(): call()
pytorch_fn.py: Module: call():
mix_ops.py: MixedOp: call(): for idx, op in enumerate(self.children()):  2 Seq(
  (0): AvgPool2d(kernel_size=3, stride=1, padding=1)
  (1): BatchNorm2d(16, eps=1e-05, momentum=0.1, affine=False, track_running_stats=True)
) <class 'vega.modules.operators.conv.Seq'>
pytorch_fn.py: Module: forward(): call()
pytorch_fn.py: Module: call():
mix_ops.py: MixedOp: call(): for idx, op in enumerate(self.children()):  3 Identity() <class 'vega.modules.operators.functions.pytorch_fn.Identity'>
mix_ops.py: MixedOp: call(): for idx, op in enumerate(self.children()):  4 SeparatedConv(
  (0_conv1): Conv2d(16, 16, kernel_size=(3, 3), stride=(1, 1), padding=(1, 1), groups=16, bias=False)
  (0_conv2): Conv2d(16, 16, kernel_size=(1, 1), stride=(1, 1), bias=False)
  (0_batch): BatchNorm2d(16, eps=1e-05, momentum=0.1, affine=False, track_running_stats=True)
  (0_relu): Relu()
) <class 'vega.modules.operators.conv.SeparatedConv'>
pytorch_fn.py: Module: forward(): call()
pytorch_fn.py: Module: call():
mix_ops.py: MixedOp: call(): for idx, op in enumerate(self.children()):  5 SeparatedConv(
  (0_conv1): Conv2d(16, 16, kernel_size=(5, 5), stride=(1, 1), padding=(2, 2), groups=16, bias=False)
  (0_conv2): Conv2d(16, 16, kernel_size=(1, 1), stride=(1, 1), bias=False)
  (0_batch): BatchNorm2d(16, eps=1e-05, momentum=0.1, affine=False, track_running_stats=True)
  (0_relu): Relu()
) <class 'vega.modules.operators.conv.SeparatedConv'>
pytorch_fn.py: Module: forward(): call()
pytorch_fn.py: Module: call():
mix_ops.py: MixedOp: call(): for idx, op in enumerate(self.children()):  6 DilConv(
  (relu): Relu()
  (conv1): Conv2d(16, 16, kernel_size=(3, 3), stride=(1, 1), padding=(2, 2), dilation=(2, 2), groups=16, bias=False)
  (conv2): Conv2d(16, 16, kernel_size=(1, 1), stride=(1, 1), bias=False)
  (batch): BatchNorm2d(16, eps=1e-05, momentum=0.1, affine=False, track_running_stats=True)
) <class 'vega.modules.operators.conv.DilConv'>
pytorch_fn.py: Module: forward(): call()
pytorch_fn.py: Module: call():
mix_ops.py: MixedOp: call(): for idx, op in enumerate(self.children()):  7 DilConv(
  (relu): Relu()
  (conv1): Conv2d(16, 16, kernel_size=(5, 5), stride=(1, 1), padding=(4, 4), dilation=(2, 2), groups=16, bias=False)
  (conv2): Conv2d(16, 16, kernel_size=(1, 1), stride=(1, 1), bias=False)
  (batch): BatchNorm2d(16, eps=1e-05, momentum=0.1, affine=False, track_running_stats=True)
) <class 'vega.modules.operators.conv.DilConv'>
pytorch_fn.py: Module: forward(): call()
pytorch_fn.py: Module: call():
cell.py: Cell: call(): j, inp:  1 1
cell.py: Cell: call(): op:  MixedOp(
  (none): Zero()
  (max_pool_3x3): Seq(
    (0): MaxPool2d(kernel_size=3, stride=1, padding=1, dilation=1, ceil_mode=False)
    (1): BatchNorm2d(16, eps=1e-05, momentum=0.1, affine=False, track_running_stats=True)
  )
  (avg_pool_3x3): Seq(
    (0): AvgPool2d(kernel_size=3, stride=1, padding=1)
    (1): BatchNorm2d(16, eps=1e-05, momentum=0.1, affine=False, track_running_stats=True)
  )
  (skip_connect): Identity()
  (sep_conv_3x3): SeparatedConv(
    (0_conv1): Conv2d(16, 16, kernel_size=(3, 3), stride=(1, 1), padding=(1, 1), groups=16, bias=False)
    (0_conv2): Conv2d(16, 16, kernel_size=(1, 1), stride=(1, 1), bias=False)
    (0_batch): BatchNorm2d(16, eps=1e-05, momentum=0.1, affine=False, track_running_stats=True)
    (0_relu): Relu()
  )
  (sep_conv_5x5): SeparatedConv(
    (0_conv1): Conv2d(16, 16, kernel_size=(5, 5), stride=(1, 1), padding=(2, 2), groups=16, bias=False)
    (0_conv2): Conv2d(16, 16, kernel_size=(1, 1), stride=(1, 1), bias=False)
    (0_batch): BatchNorm2d(16, eps=1e-05, momentum=0.1, affine=False, track_running_stats=True)
    (0_relu): Relu()
  )
  (dil_conv_3x3): DilConv(
    (relu): Relu()
    (conv1): Conv2d(16, 16, kernel_size=(3, 3), stride=(1, 1), padding=(2, 2), dilation=(2, 2), groups=16, bias=False)
    (conv2): Conv2d(16, 16, kernel_size=(1, 1), stride=(1, 1), bias=False)
    (batch): BatchNorm2d(16, eps=1e-05, momentum=0.1, affine=False, track_running_stats=True)
  )
  (dil_conv_5x5): DilConv(
    (relu): Relu()
    (conv1): Conv2d(16, 16, kernel_size=(5, 5), stride=(1, 1), padding=(4, 4), dilation=(2, 2), groups=16, bias=False)
    (conv2): Conv2d(16, 16, kernel_size=(1, 1), stride=(1, 1), bias=False)
    (batch): BatchNorm2d(16, eps=1e-05, momentum=0.1, affine=False, track_running_stats=True)
  )
)
pytorch_fn.py: Module: forward(): call()
mix_ops.py: MixedOp: call(): for idx, op in enumerate(self.children()):  0 Zero() <class 'vega.modules.operators.functions.pytorch_fn.Zero'>
mix_ops.py: MixedOp: call(): for idx, op in enumerate(self.children()):  1 Seq(
  (0): MaxPool2d(kernel_size=3, stride=1, padding=1, dilation=1, ceil_mode=False)
  (1): BatchNorm2d(16, eps=1e-05, momentum=0.1, affine=False, track_running_stats=True)
) <class 'vega.modules.operators.conv.Seq'>
pytorch_fn.py: Module: forward(): call()
pytorch_fn.py: Module: call():
mix_ops.py: MixedOp: call(): for idx, op in enumerate(self.children()):  2 Seq(
  (0): AvgPool2d(kernel_size=3, stride=1, padding=1)
  (1): BatchNorm2d(16, eps=1e-05, momentum=0.1, affine=False, track_running_stats=True)
) <class 'vega.modules.operators.conv.Seq'>
pytorch_fn.py: Module: forward(): call()
pytorch_fn.py: Module: call():
mix_ops.py: MixedOp: call(): for idx, op in enumerate(self.children()):  3 Identity() <class 'vega.modules.operators.functions.pytorch_fn.Identity'>
mix_ops.py: MixedOp: call(): for idx, op in enumerate(self.children()):  4 SeparatedConv(
  (0_conv1): Conv2d(16, 16, kernel_size=(3, 3), stride=(1, 1), padding=(1, 1), groups=16, bias=False)
  (0_conv2): Conv2d(16, 16, kernel_size=(1, 1), stride=(1, 1), bias=False)
  (0_batch): BatchNorm2d(16, eps=1e-05, momentum=0.1, affine=False, track_running_stats=True)
  (0_relu): Relu()
) <class 'vega.modules.operators.conv.SeparatedConv'>
pytorch_fn.py: Module: forward(): call()
pytorch_fn.py: Module: call():
mix_ops.py: MixedOp: call(): for idx, op in enumerate(self.children()):  5 SeparatedConv(
  (0_conv1): Conv2d(16, 16, kernel_size=(5, 5), stride=(1, 1), padding=(2, 2), groups=16, bias=False)
  (0_conv2): Conv2d(16, 16, kernel_size=(1, 1), stride=(1, 1), bias=False)
  (0_batch): BatchNorm2d(16, eps=1e-05, momentum=0.1, affine=False, track_running_stats=True)
  (0_relu): Relu()
) <class 'vega.modules.operators.conv.SeparatedConv'>
pytorch_fn.py: Module: forward(): call()
pytorch_fn.py: Module: call():
mix_ops.py: MixedOp: call(): for idx, op in enumerate(self.children()):  6 DilConv(
  (relu): Relu()
  (conv1): Conv2d(16, 16, kernel_size=(3, 3), stride=(1, 1), padding=(2, 2), dilation=(2, 2), groups=16, bias=False)
  (conv2): Conv2d(16, 16, kernel_size=(1, 1), stride=(1, 1), bias=False)
  (batch): BatchNorm2d(16, eps=1e-05, momentum=0.1, affine=False, track_running_stats=True)
) <class 'vega.modules.operators.conv.DilConv'>
pytorch_fn.py: Module: forward(): call()
pytorch_fn.py: Module: call():
mix_ops.py: MixedOp: call(): for idx, op in enumerate(self.children()):  7 DilConv(
  (relu): Relu()
  (conv1): Conv2d(16, 16, kernel_size=(5, 5), stride=(1, 1), padding=(4, 4), dilation=(2, 2), groups=16, bias=False)
  (conv2): Conv2d(16, 16, kernel_size=(1, 1), stride=(1, 1), bias=False)
  (batch): BatchNorm2d(16, eps=1e-05, momentum=0.1, affine=False, track_running_stats=True)
) <class 'vega.modules.operators.conv.DilConv'>
pytorch_fn.py: Module: forward(): call()
pytorch_fn.py: Module: call():
cell.py: Cell: call(): j, inp:  2 2
cell.py: Cell: call(): op:  MixedOp(
  (none): Zero()
  (max_pool_3x3): Seq(
    (0): MaxPool2d(kernel_size=3, stride=1, padding=1, dilation=1, ceil_mode=False)
    (1): BatchNorm2d(16, eps=1e-05, momentum=0.1, affine=False, track_running_stats=True)
  )
  (avg_pool_3x3): Seq(
    (0): AvgPool2d(kernel_size=3, stride=1, padding=1)
    (1): BatchNorm2d(16, eps=1e-05, momentum=0.1, affine=False, track_running_stats=True)
  )
  (skip_connect): Identity()
  (sep_conv_3x3): SeparatedConv(
    (0_conv1): Conv2d(16, 16, kernel_size=(3, 3), stride=(1, 1), padding=(1, 1), groups=16, bias=False)
    (0_conv2): Conv2d(16, 16, kernel_size=(1, 1), stride=(1, 1), bias=False)
    (0_batch): BatchNorm2d(16, eps=1e-05, momentum=0.1, affine=False, track_running_stats=True)
    (0_relu): Relu()
  )
  (sep_conv_5x5): SeparatedConv(
    (0_conv1): Conv2d(16, 16, kernel_size=(5, 5), stride=(1, 1), padding=(2, 2), groups=16, bias=False)
    (0_conv2): Conv2d(16, 16, kernel_size=(1, 1), stride=(1, 1), bias=False)
    (0_batch): BatchNorm2d(16, eps=1e-05, momentum=0.1, affine=False, track_running_stats=True)
    (0_relu): Relu()
  )
  (dil_conv_3x3): DilConv(
    (relu): Relu()
    (conv1): Conv2d(16, 16, kernel_size=(3, 3), stride=(1, 1), padding=(2, 2), dilation=(2, 2), groups=16, bias=False)
    (conv2): Conv2d(16, 16, kernel_size=(1, 1), stride=(1, 1), bias=False)
    (batch): BatchNorm2d(16, eps=1e-05, momentum=0.1, affine=False, track_running_stats=True)
  )
  (dil_conv_5x5): DilConv(
    (relu): Relu()
    (conv1): Conv2d(16, 16, kernel_size=(5, 5), stride=(1, 1), padding=(4, 4), dilation=(2, 2), groups=16, bias=False)
    (conv2): Conv2d(16, 16, kernel_size=(1, 1), stride=(1, 1), bias=False)
    (batch): BatchNorm2d(16, eps=1e-05, momentum=0.1, affine=False, track_running_stats=True)
  )
)
pytorch_fn.py: Module: forward(): call()
mix_ops.py: MixedOp: call(): for idx, op in enumerate(self.children()):  0 Zero() <class 'vega.modules.operators.functions.pytorch_fn.Zero'>
mix_ops.py: MixedOp: call(): for idx, op in enumerate(self.children()):  1 Seq(
  (0): MaxPool2d(kernel_size=3, stride=1, padding=1, dilation=1, ceil_mode=False)
  (1): BatchNorm2d(16, eps=1e-05, momentum=0.1, affine=False, track_running_stats=True)
) <class 'vega.modules.operators.conv.Seq'>
pytorch_fn.py: Module: forward(): call()
pytorch_fn.py: Module: call():
mix_ops.py: MixedOp: call(): for idx, op in enumerate(self.children()):  2 Seq(
  (0): AvgPool2d(kernel_size=3, stride=1, padding=1)
  (1): BatchNorm2d(16, eps=1e-05, momentum=0.1, affine=False, track_running_stats=True)
) <class 'vega.modules.operators.conv.Seq'>
pytorch_fn.py: Module: forward(): call()
pytorch_fn.py: Module: call():
mix_ops.py: MixedOp: call(): for idx, op in enumerate(self.children()):  3 Identity() <class 'vega.modules.operators.functions.pytorch_fn.Identity'>
mix_ops.py: MixedOp: call(): for idx, op in enumerate(self.children()):  4 SeparatedConv(
  (0_conv1): Conv2d(16, 16, kernel_size=(3, 3), stride=(1, 1), padding=(1, 1), groups=16, bias=False)
  (0_conv2): Conv2d(16, 16, kernel_size=(1, 1), stride=(1, 1), bias=False)
  (0_batch): BatchNorm2d(16, eps=1e-05, momentum=0.1, affine=False, track_running_stats=True)
  (0_relu): Relu()
) <class 'vega.modules.operators.conv.SeparatedConv'>
pytorch_fn.py: Module: forward(): call()
pytorch_fn.py: Module: call():
mix_ops.py: MixedOp: call(): for idx, op in enumerate(self.children()):  5 SeparatedConv(
  (0_conv1): Conv2d(16, 16, kernel_size=(5, 5), stride=(1, 1), padding=(2, 2), groups=16, bias=False)
  (0_conv2): Conv2d(16, 16, kernel_size=(1, 1), stride=(1, 1), bias=False)
  (0_batch): BatchNorm2d(16, eps=1e-05, momentum=0.1, affine=False, track_running_stats=True)
  (0_relu): Relu()
) <class 'vega.modules.operators.conv.SeparatedConv'>
pytorch_fn.py: Module: forward(): call()
pytorch_fn.py: Module: call():
mix_ops.py: MixedOp: call(): for idx, op in enumerate(self.children()):  6 DilConv(
  (relu): Relu()
  (conv1): Conv2d(16, 16, kernel_size=(3, 3), stride=(1, 1), padding=(2, 2), dilation=(2, 2), groups=16, bias=False)
  (conv2): Conv2d(16, 16, kernel_size=(1, 1), stride=(1, 1), bias=False)
  (batch): BatchNorm2d(16, eps=1e-05, momentum=0.1, affine=False, track_running_stats=True)
) <class 'vega.modules.operators.conv.DilConv'>
pytorch_fn.py: Module: forward(): call()
pytorch_fn.py: Module: call():
mix_ops.py: MixedOp: call(): for idx, op in enumerate(self.children()):  7 DilConv(
  (relu): Relu()
  (conv1): Conv2d(16, 16, kernel_size=(5, 5), stride=(1, 1), padding=(4, 4), dilation=(2, 2), groups=16, bias=False)
  (conv2): Conv2d(16, 16, kernel_size=(1, 1), stride=(1, 1), bias=False)
  (batch): BatchNorm2d(16, eps=1e-05, momentum=0.1, affine=False, track_running_stats=True)
) <class 'vega.modules.operators.conv.DilConv'>
pytorch_fn.py: Module: forward(): call()
pytorch_fn.py: Module: call():
cell.py: Cell: call(): j, inp:  0 0
cell.py: Cell: call(): op:  MixedOp(
  (none): Zero()
  (max_pool_3x3): Seq(
    (0): MaxPool2d(kernel_size=3, stride=1, padding=1, dilation=1, ceil_mode=False)
    (1): BatchNorm2d(16, eps=1e-05, momentum=0.1, affine=False, track_running_stats=True)
  )
  (avg_pool_3x3): Seq(
    (0): AvgPool2d(kernel_size=3, stride=1, padding=1)
    (1): BatchNorm2d(16, eps=1e-05, momentum=0.1, affine=False, track_running_stats=True)
  )
  (skip_connect): Identity()
  (sep_conv_3x3): SeparatedConv(
    (0_conv1): Conv2d(16, 16, kernel_size=(3, 3), stride=(1, 1), padding=(1, 1), groups=16, bias=False)
    (0_conv2): Conv2d(16, 16, kernel_size=(1, 1), stride=(1, 1), bias=False)
    (0_batch): BatchNorm2d(16, eps=1e-05, momentum=0.1, affine=False, track_running_stats=True)
    (0_relu): Relu()
  )
  (sep_conv_5x5): SeparatedConv(
    (0_conv1): Conv2d(16, 16, kernel_size=(5, 5), stride=(1, 1), padding=(2, 2), groups=16, bias=False)
    (0_conv2): Conv2d(16, 16, kernel_size=(1, 1), stride=(1, 1), bias=False)
    (0_batch): BatchNorm2d(16, eps=1e-05, momentum=0.1, affine=False, track_running_stats=True)
    (0_relu): Relu()
  )
  (dil_conv_3x3): DilConv(
    (relu): Relu()
    (conv1): Conv2d(16, 16, kernel_size=(3, 3), stride=(1, 1), padding=(2, 2), dilation=(2, 2), groups=16, bias=False)
    (conv2): Conv2d(16, 16, kernel_size=(1, 1), stride=(1, 1), bias=False)
    (batch): BatchNorm2d(16, eps=1e-05, momentum=0.1, affine=False, track_running_stats=True)
  )
  (dil_conv_5x5): DilConv(
    (relu): Relu()
    (conv1): Conv2d(16, 16, kernel_size=(5, 5), stride=(1, 1), padding=(4, 4), dilation=(2, 2), groups=16, bias=False)
    (conv2): Conv2d(16, 16, kernel_size=(1, 1), stride=(1, 1), bias=False)
    (batch): BatchNorm2d(16, eps=1e-05, momentum=0.1, affine=False, track_running_stats=True)
  )
)
pytorch_fn.py: Module: forward(): call()
mix_ops.py: MixedOp: call(): for idx, op in enumerate(self.children()):  0 Zero() <class 'vega.modules.operators.functions.pytorch_fn.Zero'>
mix_ops.py: MixedOp: call(): for idx, op in enumerate(self.children()):  1 Seq(
  (0): MaxPool2d(kernel_size=3, stride=1, padding=1, dilation=1, ceil_mode=False)
  (1): BatchNorm2d(16, eps=1e-05, momentum=0.1, affine=False, track_running_stats=True)
) <class 'vega.modules.operators.conv.Seq'>
pytorch_fn.py: Module: forward(): call()
pytorch_fn.py: Module: call():
mix_ops.py: MixedOp: call(): for idx, op in enumerate(self.children()):  2 Seq(
  (0): AvgPool2d(kernel_size=3, stride=1, padding=1)
  (1): BatchNorm2d(16, eps=1e-05, momentum=0.1, affine=False, track_running_stats=True)
) <class 'vega.modules.operators.conv.Seq'>
pytorch_fn.py: Module: forward(): call()
pytorch_fn.py: Module: call():
mix_ops.py: MixedOp: call(): for idx, op in enumerate(self.children()):  3 Identity() <class 'vega.modules.operators.functions.pytorch_fn.Identity'>
mix_ops.py: MixedOp: call(): for idx, op in enumerate(self.children()):  4 SeparatedConv(
  (0_conv1): Conv2d(16, 16, kernel_size=(3, 3), stride=(1, 1), padding=(1, 1), groups=16, bias=False)
  (0_conv2): Conv2d(16, 16, kernel_size=(1, 1), stride=(1, 1), bias=False)
  (0_batch): BatchNorm2d(16, eps=1e-05, momentum=0.1, affine=False, track_running_stats=True)
  (0_relu): Relu()
) <class 'vega.modules.operators.conv.SeparatedConv'>
pytorch_fn.py: Module: forward(): call()
pytorch_fn.py: Module: call():
mix_ops.py: MixedOp: call(): for idx, op in enumerate(self.children()):  5 SeparatedConv(
  (0_conv1): Conv2d(16, 16, kernel_size=(5, 5), stride=(1, 1), padding=(2, 2), groups=16, bias=False)
  (0_conv2): Conv2d(16, 16, kernel_size=(1, 1), stride=(1, 1), bias=False)
  (0_batch): BatchNorm2d(16, eps=1e-05, momentum=0.1, affine=False, track_running_stats=True)
  (0_relu): Relu()
) <class 'vega.modules.operators.conv.SeparatedConv'>
pytorch_fn.py: Module: forward(): call()
pytorch_fn.py: Module: call():
mix_ops.py: MixedOp: call(): for idx, op in enumerate(self.children()):  6 DilConv(
  (relu): Relu()
  (conv1): Conv2d(16, 16, kernel_size=(3, 3), stride=(1, 1), padding=(2, 2), dilation=(2, 2), groups=16, bias=False)
  (conv2): Conv2d(16, 16, kernel_size=(1, 1), stride=(1, 1), bias=False)
  (batch): BatchNorm2d(16, eps=1e-05, momentum=0.1, affine=False, track_running_stats=True)
) <class 'vega.modules.operators.conv.DilConv'>
pytorch_fn.py: Module: forward(): call()
pytorch_fn.py: Module: call():
mix_ops.py: MixedOp: call(): for idx, op in enumerate(self.children()):  7 DilConv(
  (relu): Relu()
  (conv1): Conv2d(16, 16, kernel_size=(5, 5), stride=(1, 1), padding=(4, 4), dilation=(2, 2), groups=16, bias=False)
  (conv2): Conv2d(16, 16, kernel_size=(1, 1), stride=(1, 1), bias=False)
  (batch): BatchNorm2d(16, eps=1e-05, momentum=0.1, affine=False, track_running_stats=True)
) <class 'vega.modules.operators.conv.DilConv'>
pytorch_fn.py: Module: forward(): call()
pytorch_fn.py: Module: call():
cell.py: Cell: call(): j, inp:  1 1
cell.py: Cell: call(): op:  MixedOp(
  (none): Zero()
  (max_pool_3x3): Seq(
    (0): MaxPool2d(kernel_size=3, stride=1, padding=1, dilation=1, ceil_mode=False)
    (1): BatchNorm2d(16, eps=1e-05, momentum=0.1, affine=False, track_running_stats=True)
  )
  (avg_pool_3x3): Seq(
    (0): AvgPool2d(kernel_size=3, stride=1, padding=1)
    (1): BatchNorm2d(16, eps=1e-05, momentum=0.1, affine=False, track_running_stats=True)
  )
  (skip_connect): Identity()
  (sep_conv_3x3): SeparatedConv(
    (0_conv1): Conv2d(16, 16, kernel_size=(3, 3), stride=(1, 1), padding=(1, 1), groups=16, bias=False)
    (0_conv2): Conv2d(16, 16, kernel_size=(1, 1), stride=(1, 1), bias=False)
    (0_batch): BatchNorm2d(16, eps=1e-05, momentum=0.1, affine=False, track_running_stats=True)
    (0_relu): Relu()
  )
  (sep_conv_5x5): SeparatedConv(
    (0_conv1): Conv2d(16, 16, kernel_size=(5, 5), stride=(1, 1), padding=(2, 2), groups=16, bias=False)
    (0_conv2): Conv2d(16, 16, kernel_size=(1, 1), stride=(1, 1), bias=False)
    (0_batch): BatchNorm2d(16, eps=1e-05, momentum=0.1, affine=False, track_running_stats=True)
    (0_relu): Relu()
  )
  (dil_conv_3x3): DilConv(
    (relu): Relu()
    (conv1): Conv2d(16, 16, kernel_size=(3, 3), stride=(1, 1), padding=(2, 2), dilation=(2, 2), groups=16, bias=False)
    (conv2): Conv2d(16, 16, kernel_size=(1, 1), stride=(1, 1), bias=False)
    (batch): BatchNorm2d(16, eps=1e-05, momentum=0.1, affine=False, track_running_stats=True)
  )
  (dil_conv_5x5): DilConv(
    (relu): Relu()
    (conv1): Conv2d(16, 16, kernel_size=(5, 5), stride=(1, 1), padding=(4, 4), dilation=(2, 2), groups=16, bias=False)
    (conv2): Conv2d(16, 16, kernel_size=(1, 1), stride=(1, 1), bias=False)
    (batch): BatchNorm2d(16, eps=1e-05, momentum=0.1, affine=False, track_running_stats=True)
  )
)
pytorch_fn.py: Module: forward(): call()
mix_ops.py: MixedOp: call(): for idx, op in enumerate(self.children()):  0 Zero() <class 'vega.modules.operators.functions.pytorch_fn.Zero'>
mix_ops.py: MixedOp: call(): for idx, op in enumerate(self.children()):  1 Seq(
  (0): MaxPool2d(kernel_size=3, stride=1, padding=1, dilation=1, ceil_mode=False)
  (1): BatchNorm2d(16, eps=1e-05, momentum=0.1, affine=False, track_running_stats=True)
) <class 'vega.modules.operators.conv.Seq'>
pytorch_fn.py: Module: forward(): call()
pytorch_fn.py: Module: call():
mix_ops.py: MixedOp: call(): for idx, op in enumerate(self.children()):  2 Seq(
  (0): AvgPool2d(kernel_size=3, stride=1, padding=1)
  (1): BatchNorm2d(16, eps=1e-05, momentum=0.1, affine=False, track_running_stats=True)
) <class 'vega.modules.operators.conv.Seq'>
pytorch_fn.py: Module: forward(): call()
pytorch_fn.py: Module: call():
mix_ops.py: MixedOp: call(): for idx, op in enumerate(self.children()):  3 Identity() <class 'vega.modules.operators.functions.pytorch_fn.Identity'>
mix_ops.py: MixedOp: call(): for idx, op in enumerate(self.children()):  4 SeparatedConv(
  (0_conv1): Conv2d(16, 16, kernel_size=(3, 3), stride=(1, 1), padding=(1, 1), groups=16, bias=False)
  (0_conv2): Conv2d(16, 16, kernel_size=(1, 1), stride=(1, 1), bias=False)
  (0_batch): BatchNorm2d(16, eps=1e-05, momentum=0.1, affine=False, track_running_stats=True)
  (0_relu): Relu()
) <class 'vega.modules.operators.conv.SeparatedConv'>
pytorch_fn.py: Module: forward(): call()
pytorch_fn.py: Module: call():
mix_ops.py: MixedOp: call(): for idx, op in enumerate(self.children()):  5 SeparatedConv(
  (0_conv1): Conv2d(16, 16, kernel_size=(5, 5), stride=(1, 1), padding=(2, 2), groups=16, bias=False)
  (0_conv2): Conv2d(16, 16, kernel_size=(1, 1), stride=(1, 1), bias=False)
  (0_batch): BatchNorm2d(16, eps=1e-05, momentum=0.1, affine=False, track_running_stats=True)
  (0_relu): Relu()
) <class 'vega.modules.operators.conv.SeparatedConv'>
pytorch_fn.py: Module: forward(): call()
pytorch_fn.py: Module: call():
mix_ops.py: MixedOp: call(): for idx, op in enumerate(self.children()):  6 DilConv(
  (relu): Relu()
  (conv1): Conv2d(16, 16, kernel_size=(3, 3), stride=(1, 1), padding=(2, 2), dilation=(2, 2), groups=16, bias=False)
  (conv2): Conv2d(16, 16, kernel_size=(1, 1), stride=(1, 1), bias=False)
  (batch): BatchNorm2d(16, eps=1e-05, momentum=0.1, affine=False, track_running_stats=True)
) <class 'vega.modules.operators.conv.DilConv'>
pytorch_fn.py: Module: forward(): call()
pytorch_fn.py: Module: call():
mix_ops.py: MixedOp: call(): for idx, op in enumerate(self.children()):  7 DilConv(
  (relu): Relu()
  (conv1): Conv2d(16, 16, kernel_size=(5, 5), stride=(1, 1), padding=(4, 4), dilation=(2, 2), groups=16, bias=False)
  (conv2): Conv2d(16, 16, kernel_size=(1, 1), stride=(1, 1), bias=False)
  (batch): BatchNorm2d(16, eps=1e-05, momentum=0.1, affine=False, track_running_stats=True)
) <class 'vega.modules.operators.conv.DilConv'>
pytorch_fn.py: Module: forward(): call()
pytorch_fn.py: Module: call():
cell.py: Cell: call(): j, inp:  2 2
cell.py: Cell: call(): op:  MixedOp(
  (none): Zero()
  (max_pool_3x3): Seq(
    (0): MaxPool2d(kernel_size=3, stride=1, padding=1, dilation=1, ceil_mode=False)
    (1): BatchNorm2d(16, eps=1e-05, momentum=0.1, affine=False, track_running_stats=True)
  )
  (avg_pool_3x3): Seq(
    (0): AvgPool2d(kernel_size=3, stride=1, padding=1)
    (1): BatchNorm2d(16, eps=1e-05, momentum=0.1, affine=False, track_running_stats=True)
  )
  (skip_connect): Identity()
  (sep_conv_3x3): SeparatedConv(
    (0_conv1): Conv2d(16, 16, kernel_size=(3, 3), stride=(1, 1), padding=(1, 1), groups=16, bias=False)
    (0_conv2): Conv2d(16, 16, kernel_size=(1, 1), stride=(1, 1), bias=False)
    (0_batch): BatchNorm2d(16, eps=1e-05, momentum=0.1, affine=False, track_running_stats=True)
    (0_relu): Relu()
  )
  (sep_conv_5x5): SeparatedConv(
    (0_conv1): Conv2d(16, 16, kernel_size=(5, 5), stride=(1, 1), padding=(2, 2), groups=16, bias=False)
    (0_conv2): Conv2d(16, 16, kernel_size=(1, 1), stride=(1, 1), bias=False)
    (0_batch): BatchNorm2d(16, eps=1e-05, momentum=0.1, affine=False, track_running_stats=True)
    (0_relu): Relu()
  )
  (dil_conv_3x3): DilConv(
    (relu): Relu()
    (conv1): Conv2d(16, 16, kernel_size=(3, 3), stride=(1, 1), padding=(2, 2), dilation=(2, 2), groups=16, bias=False)
    (conv2): Conv2d(16, 16, kernel_size=(1, 1), stride=(1, 1), bias=False)
    (batch): BatchNorm2d(16, eps=1e-05, momentum=0.1, affine=False, track_running_stats=True)
  )
  (dil_conv_5x5): DilConv(
    (relu): Relu()
    (conv1): Conv2d(16, 16, kernel_size=(5, 5), stride=(1, 1), padding=(4, 4), dilation=(2, 2), groups=16, bias=False)
    (conv2): Conv2d(16, 16, kernel_size=(1, 1), stride=(1, 1), bias=False)
    (batch): BatchNorm2d(16, eps=1e-05, momentum=0.1, affine=False, track_running_stats=True)
  )
)
pytorch_fn.py: Module: forward(): call()
mix_ops.py: MixedOp: call(): for idx, op in enumerate(self.children()):  0 Zero() <class 'vega.modules.operators.functions.pytorch_fn.Zero'>
mix_ops.py: MixedOp: call(): for idx, op in enumerate(self.children()):  1 Seq(
  (0): MaxPool2d(kernel_size=3, stride=1, padding=1, dilation=1, ceil_mode=False)
  (1): BatchNorm2d(16, eps=1e-05, momentum=0.1, affine=False, track_running_stats=True)
) <class 'vega.modules.operators.conv.Seq'>
pytorch_fn.py: Module: forward(): call()
pytorch_fn.py: Module: call():
mix_ops.py: MixedOp: call(): for idx, op in enumerate(self.children()):  2 Seq(
  (0): AvgPool2d(kernel_size=3, stride=1, padding=1)
  (1): BatchNorm2d(16, eps=1e-05, momentum=0.1, affine=False, track_running_stats=True)
) <class 'vega.modules.operators.conv.Seq'>
pytorch_fn.py: Module: forward(): call()
pytorch_fn.py: Module: call():
mix_ops.py: MixedOp: call(): for idx, op in enumerate(self.children()):  3 Identity() <class 'vega.modules.operators.functions.pytorch_fn.Identity'>
mix_ops.py: MixedOp: call(): for idx, op in enumerate(self.children()):  4 SeparatedConv(
  (0_conv1): Conv2d(16, 16, kernel_size=(3, 3), stride=(1, 1), padding=(1, 1), groups=16, bias=False)
  (0_conv2): Conv2d(16, 16, kernel_size=(1, 1), stride=(1, 1), bias=False)
  (0_batch): BatchNorm2d(16, eps=1e-05, momentum=0.1, affine=False, track_running_stats=True)
  (0_relu): Relu()
) <class 'vega.modules.operators.conv.SeparatedConv'>
pytorch_fn.py: Module: forward(): call()
pytorch_fn.py: Module: call():
mix_ops.py: MixedOp: call(): for idx, op in enumerate(self.children()):  5 SeparatedConv(
  (0_conv1): Conv2d(16, 16, kernel_size=(5, 5), stride=(1, 1), padding=(2, 2), groups=16, bias=False)
  (0_conv2): Conv2d(16, 16, kernel_size=(1, 1), stride=(1, 1), bias=False)
  (0_batch): BatchNorm2d(16, eps=1e-05, momentum=0.1, affine=False, track_running_stats=True)
  (0_relu): Relu()
) <class 'vega.modules.operators.conv.SeparatedConv'>
pytorch_fn.py: Module: forward(): call()
pytorch_fn.py: Module: call():
mix_ops.py: MixedOp: call(): for idx, op in enumerate(self.children()):  6 DilConv(
  (relu): Relu()
  (conv1): Conv2d(16, 16, kernel_size=(3, 3), stride=(1, 1), padding=(2, 2), dilation=(2, 2), groups=16, bias=False)
  (conv2): Conv2d(16, 16, kernel_size=(1, 1), stride=(1, 1), bias=False)
  (batch): BatchNorm2d(16, eps=1e-05, momentum=0.1, affine=False, track_running_stats=True)
) <class 'vega.modules.operators.conv.DilConv'>
pytorch_fn.py: Module: forward(): call()
pytorch_fn.py: Module: call():
mix_ops.py: MixedOp: call(): for idx, op in enumerate(self.children()):  7 DilConv(
  (relu): Relu()
  (conv1): Conv2d(16, 16, kernel_size=(5, 5), stride=(1, 1), padding=(4, 4), dilation=(2, 2), groups=16, bias=False)
  (conv2): Conv2d(16, 16, kernel_size=(1, 1), stride=(1, 1), bias=False)
  (batch): BatchNorm2d(16, eps=1e-05, momentum=0.1, affine=False, track_running_stats=True)
) <class 'vega.modules.operators.conv.DilConv'>
pytorch_fn.py: Module: forward(): call()
pytorch_fn.py: Module: call():
cell.py: Cell: call(): j, inp:  3 3
cell.py: Cell: call(): op:  MixedOp(
  (none): Zero()
  (max_pool_3x3): Seq(
    (0): MaxPool2d(kernel_size=3, stride=1, padding=1, dilation=1, ceil_mode=False)
    (1): BatchNorm2d(16, eps=1e-05, momentum=0.1, affine=False, track_running_stats=True)
  )
  (avg_pool_3x3): Seq(
    (0): AvgPool2d(kernel_size=3, stride=1, padding=1)
    (1): BatchNorm2d(16, eps=1e-05, momentum=0.1, affine=False, track_running_stats=True)
  )
  (skip_connect): Identity()
  (sep_conv_3x3): SeparatedConv(
    (0_conv1): Conv2d(16, 16, kernel_size=(3, 3), stride=(1, 1), padding=(1, 1), groups=16, bias=False)
    (0_conv2): Conv2d(16, 16, kernel_size=(1, 1), stride=(1, 1), bias=False)
    (0_batch): BatchNorm2d(16, eps=1e-05, momentum=0.1, affine=False, track_running_stats=True)
    (0_relu): Relu()
  )
  (sep_conv_5x5): SeparatedConv(
    (0_conv1): Conv2d(16, 16, kernel_size=(5, 5), stride=(1, 1), padding=(2, 2), groups=16, bias=False)
    (0_conv2): Conv2d(16, 16, kernel_size=(1, 1), stride=(1, 1), bias=False)
    (0_batch): BatchNorm2d(16, eps=1e-05, momentum=0.1, affine=False, track_running_stats=True)
    (0_relu): Relu()
  )
  (dil_conv_3x3): DilConv(
    (relu): Relu()
    (conv1): Conv2d(16, 16, kernel_size=(3, 3), stride=(1, 1), padding=(2, 2), dilation=(2, 2), groups=16, bias=False)
    (conv2): Conv2d(16, 16, kernel_size=(1, 1), stride=(1, 1), bias=False)
    (batch): BatchNorm2d(16, eps=1e-05, momentum=0.1, affine=False, track_running_stats=True)
  )
  (dil_conv_5x5): DilConv(
    (relu): Relu()
    (conv1): Conv2d(16, 16, kernel_size=(5, 5), stride=(1, 1), padding=(4, 4), dilation=(2, 2), groups=16, bias=False)
    (conv2): Conv2d(16, 16, kernel_size=(1, 1), stride=(1, 1), bias=False)
    (batch): BatchNorm2d(16, eps=1e-05, momentum=0.1, affine=False, track_running_stats=True)
  )
)
pytorch_fn.py: Module: forward(): call()
mix_ops.py: MixedOp: call(): for idx, op in enumerate(self.children()):  0 Zero() <class 'vega.modules.operators.functions.pytorch_fn.Zero'>
mix_ops.py: MixedOp: call(): for idx, op in enumerate(self.children()):  1 Seq(
  (0): MaxPool2d(kernel_size=3, stride=1, padding=1, dilation=1, ceil_mode=False)
  (1): BatchNorm2d(16, eps=1e-05, momentum=0.1, affine=False, track_running_stats=True)
) <class 'vega.modules.operators.conv.Seq'>
pytorch_fn.py: Module: forward(): call()
pytorch_fn.py: Module: call():
mix_ops.py: MixedOp: call(): for idx, op in enumerate(self.children()):  2 Seq(
  (0): AvgPool2d(kernel_size=3, stride=1, padding=1)
  (1): BatchNorm2d(16, eps=1e-05, momentum=0.1, affine=False, track_running_stats=True)
) <class 'vega.modules.operators.conv.Seq'>
pytorch_fn.py: Module: forward(): call()
pytorch_fn.py: Module: call():
mix_ops.py: MixedOp: call(): for idx, op in enumerate(self.children()):  3 Identity() <class 'vega.modules.operators.functions.pytorch_fn.Identity'>
mix_ops.py: MixedOp: call(): for idx, op in enumerate(self.children()):  4 SeparatedConv(
  (0_conv1): Conv2d(16, 16, kernel_size=(3, 3), stride=(1, 1), padding=(1, 1), groups=16, bias=False)
  (0_conv2): Conv2d(16, 16, kernel_size=(1, 1), stride=(1, 1), bias=False)
  (0_batch): BatchNorm2d(16, eps=1e-05, momentum=0.1, affine=False, track_running_stats=True)
  (0_relu): Relu()
) <class 'vega.modules.operators.conv.SeparatedConv'>
pytorch_fn.py: Module: forward(): call()
pytorch_fn.py: Module: call():
mix_ops.py: MixedOp: call(): for idx, op in enumerate(self.children()):  5 SeparatedConv(
  (0_conv1): Conv2d(16, 16, kernel_size=(5, 5), stride=(1, 1), padding=(2, 2), groups=16, bias=False)
  (0_conv2): Conv2d(16, 16, kernel_size=(1, 1), stride=(1, 1), bias=False)
  (0_batch): BatchNorm2d(16, eps=1e-05, momentum=0.1, affine=False, track_running_stats=True)
  (0_relu): Relu()
) <class 'vega.modules.operators.conv.SeparatedConv'>
pytorch_fn.py: Module: forward(): call()
pytorch_fn.py: Module: call():
mix_ops.py: MixedOp: call(): for idx, op in enumerate(self.children()):  6 DilConv(
  (relu): Relu()
  (conv1): Conv2d(16, 16, kernel_size=(3, 3), stride=(1, 1), padding=(2, 2), dilation=(2, 2), groups=16, bias=False)
  (conv2): Conv2d(16, 16, kernel_size=(1, 1), stride=(1, 1), bias=False)
  (batch): BatchNorm2d(16, eps=1e-05, momentum=0.1, affine=False, track_running_stats=True)
) <class 'vega.modules.operators.conv.DilConv'>
pytorch_fn.py: Module: forward(): call()
pytorch_fn.py: Module: call():
mix_ops.py: MixedOp: call(): for idx, op in enumerate(self.children()):  7 DilConv(
  (relu): Relu()
  (conv1): Conv2d(16, 16, kernel_size=(5, 5), stride=(1, 1), padding=(4, 4), dilation=(2, 2), groups=16, bias=False)
  (conv2): Conv2d(16, 16, kernel_size=(1, 1), stride=(1, 1), bias=False)
  (batch): BatchNorm2d(16, eps=1e-05, momentum=0.1, affine=False, track_running_stats=True)
) <class 'vega.modules.operators.conv.DilConv'>
pytorch_fn.py: Module: forward(): call()
pytorch_fn.py: Module: call():
cell.py: Cell: call(): j, inp:  0 0
cell.py: Cell: call(): op:  MixedOp(
  (none): Zero()
  (max_pool_3x3): Seq(
    (0): MaxPool2d(kernel_size=3, stride=1, padding=1, dilation=1, ceil_mode=False)
    (1): BatchNorm2d(16, eps=1e-05, momentum=0.1, affine=False, track_running_stats=True)
  )
  (avg_pool_3x3): Seq(
    (0): AvgPool2d(kernel_size=3, stride=1, padding=1)
    (1): BatchNorm2d(16, eps=1e-05, momentum=0.1, affine=False, track_running_stats=True)
  )
  (skip_connect): Identity()
  (sep_conv_3x3): SeparatedConv(
    (0_conv1): Conv2d(16, 16, kernel_size=(3, 3), stride=(1, 1), padding=(1, 1), groups=16, bias=False)
    (0_conv2): Conv2d(16, 16, kernel_size=(1, 1), stride=(1, 1), bias=False)
    (0_batch): BatchNorm2d(16, eps=1e-05, momentum=0.1, affine=False, track_running_stats=True)
    (0_relu): Relu()
  )
  (sep_conv_5x5): SeparatedConv(
    (0_conv1): Conv2d(16, 16, kernel_size=(5, 5), stride=(1, 1), padding=(2, 2), groups=16, bias=False)
    (0_conv2): Conv2d(16, 16, kernel_size=(1, 1), stride=(1, 1), bias=False)
    (0_batch): BatchNorm2d(16, eps=1e-05, momentum=0.1, affine=False, track_running_stats=True)
    (0_relu): Relu()
  )
  (dil_conv_3x3): DilConv(
    (relu): Relu()
    (conv1): Conv2d(16, 16, kernel_size=(3, 3), stride=(1, 1), padding=(2, 2), dilation=(2, 2), groups=16, bias=False)
    (conv2): Conv2d(16, 16, kernel_size=(1, 1), stride=(1, 1), bias=False)
    (batch): BatchNorm2d(16, eps=1e-05, momentum=0.1, affine=False, track_running_stats=True)
  )
  (dil_conv_5x5): DilConv(
    (relu): Relu()
    (conv1): Conv2d(16, 16, kernel_size=(5, 5), stride=(1, 1), padding=(4, 4), dilation=(2, 2), groups=16, bias=False)
    (conv2): Conv2d(16, 16, kernel_size=(1, 1), stride=(1, 1), bias=False)
    (batch): BatchNorm2d(16, eps=1e-05, momentum=0.1, affine=False, track_running_stats=True)
  )
)
pytorch_fn.py: Module: forward(): call()
mix_ops.py: MixedOp: call(): for idx, op in enumerate(self.children()):  0 Zero() <class 'vega.modules.operators.functions.pytorch_fn.Zero'>
mix_ops.py: MixedOp: call(): for idx, op in enumerate(self.children()):  1 Seq(
  (0): MaxPool2d(kernel_size=3, stride=1, padding=1, dilation=1, ceil_mode=False)
  (1): BatchNorm2d(16, eps=1e-05, momentum=0.1, affine=False, track_running_stats=True)
) <class 'vega.modules.operators.conv.Seq'>
pytorch_fn.py: Module: forward(): call()
pytorch_fn.py: Module: call():
mix_ops.py: MixedOp: call(): for idx, op in enumerate(self.children()):  2 Seq(
  (0): AvgPool2d(kernel_size=3, stride=1, padding=1)
  (1): BatchNorm2d(16, eps=1e-05, momentum=0.1, affine=False, track_running_stats=True)
) <class 'vega.modules.operators.conv.Seq'>
pytorch_fn.py: Module: forward(): call()
pytorch_fn.py: Module: call():
mix_ops.py: MixedOp: call(): for idx, op in enumerate(self.children()):  3 Identity() <class 'vega.modules.operators.functions.pytorch_fn.Identity'>
mix_ops.py: MixedOp: call(): for idx, op in enumerate(self.children()):  4 SeparatedConv(
  (0_conv1): Conv2d(16, 16, kernel_size=(3, 3), stride=(1, 1), padding=(1, 1), groups=16, bias=False)
  (0_conv2): Conv2d(16, 16, kernel_size=(1, 1), stride=(1, 1), bias=False)
  (0_batch): BatchNorm2d(16, eps=1e-05, momentum=0.1, affine=False, track_running_stats=True)
  (0_relu): Relu()
) <class 'vega.modules.operators.conv.SeparatedConv'>
pytorch_fn.py: Module: forward(): call()
pytorch_fn.py: Module: call():
mix_ops.py: MixedOp: call(): for idx, op in enumerate(self.children()):  5 SeparatedConv(
  (0_conv1): Conv2d(16, 16, kernel_size=(5, 5), stride=(1, 1), padding=(2, 2), groups=16, bias=False)
  (0_conv2): Conv2d(16, 16, kernel_size=(1, 1), stride=(1, 1), bias=False)
  (0_batch): BatchNorm2d(16, eps=1e-05, momentum=0.1, affine=False, track_running_stats=True)
  (0_relu): Relu()
) <class 'vega.modules.operators.conv.SeparatedConv'>
pytorch_fn.py: Module: forward(): call()
pytorch_fn.py: Module: call():
mix_ops.py: MixedOp: call(): for idx, op in enumerate(self.children()):  6 DilConv(
  (relu): Relu()
  (conv1): Conv2d(16, 16, kernel_size=(3, 3), stride=(1, 1), padding=(2, 2), dilation=(2, 2), groups=16, bias=False)
  (conv2): Conv2d(16, 16, kernel_size=(1, 1), stride=(1, 1), bias=False)
  (batch): BatchNorm2d(16, eps=1e-05, momentum=0.1, affine=False, track_running_stats=True)
) <class 'vega.modules.operators.conv.DilConv'>
pytorch_fn.py: Module: forward(): call()
pytorch_fn.py: Module: call():
mix_ops.py: MixedOp: call(): for idx, op in enumerate(self.children()):  7 DilConv(
  (relu): Relu()
  (conv1): Conv2d(16, 16, kernel_size=(5, 5), stride=(1, 1), padding=(4, 4), dilation=(2, 2), groups=16, bias=False)
  (conv2): Conv2d(16, 16, kernel_size=(1, 1), stride=(1, 1), bias=False)
  (batch): BatchNorm2d(16, eps=1e-05, momentum=0.1, affine=False, track_running_stats=True)
) <class 'vega.modules.operators.conv.DilConv'>
pytorch_fn.py: Module: forward(): call()
pytorch_fn.py: Module: call():
cell.py: Cell: call(): j, inp:  1 1
cell.py: Cell: call(): op:  MixedOp(
  (none): Zero()
  (max_pool_3x3): Seq(
    (0): MaxPool2d(kernel_size=3, stride=1, padding=1, dilation=1, ceil_mode=False)
    (1): BatchNorm2d(16, eps=1e-05, momentum=0.1, affine=False, track_running_stats=True)
  )
  (avg_pool_3x3): Seq(
    (0): AvgPool2d(kernel_size=3, stride=1, padding=1)
    (1): BatchNorm2d(16, eps=1e-05, momentum=0.1, affine=False, track_running_stats=True)
  )
  (skip_connect): Identity()
  (sep_conv_3x3): SeparatedConv(
    (0_conv1): Conv2d(16, 16, kernel_size=(3, 3), stride=(1, 1), padding=(1, 1), groups=16, bias=False)
    (0_conv2): Conv2d(16, 16, kernel_size=(1, 1), stride=(1, 1), bias=False)
    (0_batch): BatchNorm2d(16, eps=1e-05, momentum=0.1, affine=False, track_running_stats=True)
    (0_relu): Relu()
  )
  (sep_conv_5x5): SeparatedConv(
    (0_conv1): Conv2d(16, 16, kernel_size=(5, 5), stride=(1, 1), padding=(2, 2), groups=16, bias=False)
    (0_conv2): Conv2d(16, 16, kernel_size=(1, 1), stride=(1, 1), bias=False)
    (0_batch): BatchNorm2d(16, eps=1e-05, momentum=0.1, affine=False, track_running_stats=True)
    (0_relu): Relu()
  )
  (dil_conv_3x3): DilConv(
    (relu): Relu()
    (conv1): Conv2d(16, 16, kernel_size=(3, 3), stride=(1, 1), padding=(2, 2), dilation=(2, 2), groups=16, bias=False)
    (conv2): Conv2d(16, 16, kernel_size=(1, 1), stride=(1, 1), bias=False)
    (batch): BatchNorm2d(16, eps=1e-05, momentum=0.1, affine=False, track_running_stats=True)
  )
  (dil_conv_5x5): DilConv(
    (relu): Relu()
    (conv1): Conv2d(16, 16, kernel_size=(5, 5), stride=(1, 1), padding=(4, 4), dilation=(2, 2), groups=16, bias=False)
    (conv2): Conv2d(16, 16, kernel_size=(1, 1), stride=(1, 1), bias=False)
    (batch): BatchNorm2d(16, eps=1e-05, momentum=0.1, affine=False, track_running_stats=True)
  )
)
pytorch_fn.py: Module: forward(): call()
mix_ops.py: MixedOp: call(): for idx, op in enumerate(self.children()):  0 Zero() <class 'vega.modules.operators.functions.pytorch_fn.Zero'>
mix_ops.py: MixedOp: call(): for idx, op in enumerate(self.children()):  1 Seq(
  (0): MaxPool2d(kernel_size=3, stride=1, padding=1, dilation=1, ceil_mode=False)
  (1): BatchNorm2d(16, eps=1e-05, momentum=0.1, affine=False, track_running_stats=True)
) <class 'vega.modules.operators.conv.Seq'>
pytorch_fn.py: Module: forward(): call()
pytorch_fn.py: Module: call():
mix_ops.py: MixedOp: call(): for idx, op in enumerate(self.children()):  2 Seq(
  (0): AvgPool2d(kernel_size=3, stride=1, padding=1)
  (1): BatchNorm2d(16, eps=1e-05, momentum=0.1, affine=False, track_running_stats=True)
) <class 'vega.modules.operators.conv.Seq'>
pytorch_fn.py: Module: forward(): call()
pytorch_fn.py: Module: call():
mix_ops.py: MixedOp: call(): for idx, op in enumerate(self.children()):  3 Identity() <class 'vega.modules.operators.functions.pytorch_fn.Identity'>
mix_ops.py: MixedOp: call(): for idx, op in enumerate(self.children()):  4 SeparatedConv(
  (0_conv1): Conv2d(16, 16, kernel_size=(3, 3), stride=(1, 1), padding=(1, 1), groups=16, bias=False)
  (0_conv2): Conv2d(16, 16, kernel_size=(1, 1), stride=(1, 1), bias=False)
  (0_batch): BatchNorm2d(16, eps=1e-05, momentum=0.1, affine=False, track_running_stats=True)
  (0_relu): Relu()
) <class 'vega.modules.operators.conv.SeparatedConv'>
pytorch_fn.py: Module: forward(): call()
pytorch_fn.py: Module: call():
mix_ops.py: MixedOp: call(): for idx, op in enumerate(self.children()):  5 SeparatedConv(
  (0_conv1): Conv2d(16, 16, kernel_size=(5, 5), stride=(1, 1), padding=(2, 2), groups=16, bias=False)
  (0_conv2): Conv2d(16, 16, kernel_size=(1, 1), stride=(1, 1), bias=False)
  (0_batch): BatchNorm2d(16, eps=1e-05, momentum=0.1, affine=False, track_running_stats=True)
  (0_relu): Relu()
) <class 'vega.modules.operators.conv.SeparatedConv'>
pytorch_fn.py: Module: forward(): call()
pytorch_fn.py: Module: call():
mix_ops.py: MixedOp: call(): for idx, op in enumerate(self.children()):  6 DilConv(
  (relu): Relu()
  (conv1): Conv2d(16, 16, kernel_size=(3, 3), stride=(1, 1), padding=(2, 2), dilation=(2, 2), groups=16, bias=False)
  (conv2): Conv2d(16, 16, kernel_size=(1, 1), stride=(1, 1), bias=False)
  (batch): BatchNorm2d(16, eps=1e-05, momentum=0.1, affine=False, track_running_stats=True)
) <class 'vega.modules.operators.conv.DilConv'>
pytorch_fn.py: Module: forward(): call()
pytorch_fn.py: Module: call():
mix_ops.py: MixedOp: call(): for idx, op in enumerate(self.children()):  7 DilConv(
  (relu): Relu()
  (conv1): Conv2d(16, 16, kernel_size=(5, 5), stride=(1, 1), padding=(4, 4), dilation=(2, 2), groups=16, bias=False)
  (conv2): Conv2d(16, 16, kernel_size=(1, 1), stride=(1, 1), bias=False)
  (batch): BatchNorm2d(16, eps=1e-05, momentum=0.1, affine=False, track_running_stats=True)
) <class 'vega.modules.operators.conv.DilConv'>
pytorch_fn.py: Module: forward(): call()
pytorch_fn.py: Module: call():
cell.py: Cell: call(): j, inp:  2 2
cell.py: Cell: call(): op:  MixedOp(
  (none): Zero()
  (max_pool_3x3): Seq(
    (0): MaxPool2d(kernel_size=3, stride=1, padding=1, dilation=1, ceil_mode=False)
    (1): BatchNorm2d(16, eps=1e-05, momentum=0.1, affine=False, track_running_stats=True)
  )
  (avg_pool_3x3): Seq(
    (0): AvgPool2d(kernel_size=3, stride=1, padding=1)
    (1): BatchNorm2d(16, eps=1e-05, momentum=0.1, affine=False, track_running_stats=True)
  )
  (skip_connect): Identity()
  (sep_conv_3x3): SeparatedConv(
    (0_conv1): Conv2d(16, 16, kernel_size=(3, 3), stride=(1, 1), padding=(1, 1), groups=16, bias=False)
    (0_conv2): Conv2d(16, 16, kernel_size=(1, 1), stride=(1, 1), bias=False)
    (0_batch): BatchNorm2d(16, eps=1e-05, momentum=0.1, affine=False, track_running_stats=True)
    (0_relu): Relu()
  )
  (sep_conv_5x5): SeparatedConv(
    (0_conv1): Conv2d(16, 16, kernel_size=(5, 5), stride=(1, 1), padding=(2, 2), groups=16, bias=False)
    (0_conv2): Conv2d(16, 16, kernel_size=(1, 1), stride=(1, 1), bias=False)
    (0_batch): BatchNorm2d(16, eps=1e-05, momentum=0.1, affine=False, track_running_stats=True)
    (0_relu): Relu()
  )
  (dil_conv_3x3): DilConv(
    (relu): Relu()
    (conv1): Conv2d(16, 16, kernel_size=(3, 3), stride=(1, 1), padding=(2, 2), dilation=(2, 2), groups=16, bias=False)
    (conv2): Conv2d(16, 16, kernel_size=(1, 1), stride=(1, 1), bias=False)
    (batch): BatchNorm2d(16, eps=1e-05, momentum=0.1, affine=False, track_running_stats=True)
  )
  (dil_conv_5x5): DilConv(
    (relu): Relu()
    (conv1): Conv2d(16, 16, kernel_size=(5, 5), stride=(1, 1), padding=(4, 4), dilation=(2, 2), groups=16, bias=False)
    (conv2): Conv2d(16, 16, kernel_size=(1, 1), stride=(1, 1), bias=False)
    (batch): BatchNorm2d(16, eps=1e-05, momentum=0.1, affine=False, track_running_stats=True)
  )
)
pytorch_fn.py: Module: forward(): call()
mix_ops.py: MixedOp: call(): for idx, op in enumerate(self.children()):  0 Zero() <class 'vega.modules.operators.functions.pytorch_fn.Zero'>
mix_ops.py: MixedOp: call(): for idx, op in enumerate(self.children()):  1 Seq(
  (0): MaxPool2d(kernel_size=3, stride=1, padding=1, dilation=1, ceil_mode=False)
  (1): BatchNorm2d(16, eps=1e-05, momentum=0.1, affine=False, track_running_stats=True)
) <class 'vega.modules.operators.conv.Seq'>
pytorch_fn.py: Module: forward(): call()
pytorch_fn.py: Module: call():
mix_ops.py: MixedOp: call(): for idx, op in enumerate(self.children()):  2 Seq(
  (0): AvgPool2d(kernel_size=3, stride=1, padding=1)
  (1): BatchNorm2d(16, eps=1e-05, momentum=0.1, affine=False, track_running_stats=True)
) <class 'vega.modules.operators.conv.Seq'>
pytorch_fn.py: Module: forward(): call()
pytorch_fn.py: Module: call():
mix_ops.py: MixedOp: call(): for idx, op in enumerate(self.children()):  3 Identity() <class 'vega.modules.operators.functions.pytorch_fn.Identity'>
mix_ops.py: MixedOp: call(): for idx, op in enumerate(self.children()):  4 SeparatedConv(
  (0_conv1): Conv2d(16, 16, kernel_size=(3, 3), stride=(1, 1), padding=(1, 1), groups=16, bias=False)
  (0_conv2): Conv2d(16, 16, kernel_size=(1, 1), stride=(1, 1), bias=False)
  (0_batch): BatchNorm2d(16, eps=1e-05, momentum=0.1, affine=False, track_running_stats=True)
  (0_relu): Relu()
) <class 'vega.modules.operators.conv.SeparatedConv'>
pytorch_fn.py: Module: forward(): call()
pytorch_fn.py: Module: call():
mix_ops.py: MixedOp: call(): for idx, op in enumerate(self.children()):  5 SeparatedConv(
  (0_conv1): Conv2d(16, 16, kernel_size=(5, 5), stride=(1, 1), padding=(2, 2), groups=16, bias=False)
  (0_conv2): Conv2d(16, 16, kernel_size=(1, 1), stride=(1, 1), bias=False)
  (0_batch): BatchNorm2d(16, eps=1e-05, momentum=0.1, affine=False, track_running_stats=True)
  (0_relu): Relu()
) <class 'vega.modules.operators.conv.SeparatedConv'>
pytorch_fn.py: Module: forward(): call()
pytorch_fn.py: Module: call():
mix_ops.py: MixedOp: call(): for idx, op in enumerate(self.children()):  6 DilConv(
  (relu): Relu()
  (conv1): Conv2d(16, 16, kernel_size=(3, 3), stride=(1, 1), padding=(2, 2), dilation=(2, 2), groups=16, bias=False)
  (conv2): Conv2d(16, 16, kernel_size=(1, 1), stride=(1, 1), bias=False)
  (batch): BatchNorm2d(16, eps=1e-05, momentum=0.1, affine=False, track_running_stats=True)
) <class 'vega.modules.operators.conv.DilConv'>
pytorch_fn.py: Module: forward(): call()
pytorch_fn.py: Module: call():
mix_ops.py: MixedOp: call(): for idx, op in enumerate(self.children()):  7 DilConv(
  (relu): Relu()
  (conv1): Conv2d(16, 16, kernel_size=(5, 5), stride=(1, 1), padding=(4, 4), dilation=(2, 2), groups=16, bias=False)
  (conv2): Conv2d(16, 16, kernel_size=(1, 1), stride=(1, 1), bias=False)
  (batch): BatchNorm2d(16, eps=1e-05, momentum=0.1, affine=False, track_running_stats=True)
) <class 'vega.modules.operators.conv.DilConv'>
pytorch_fn.py: Module: forward(): call()
pytorch_fn.py: Module: call():
cell.py: Cell: call(): j, inp:  3 3
cell.py: Cell: call(): op:  MixedOp(
  (none): Zero()
  (max_pool_3x3): Seq(
    (0): MaxPool2d(kernel_size=3, stride=1, padding=1, dilation=1, ceil_mode=False)
    (1): BatchNorm2d(16, eps=1e-05, momentum=0.1, affine=False, track_running_stats=True)
  )
  (avg_pool_3x3): Seq(
    (0): AvgPool2d(kernel_size=3, stride=1, padding=1)
    (1): BatchNorm2d(16, eps=1e-05, momentum=0.1, affine=False, track_running_stats=True)
  )
  (skip_connect): Identity()
  (sep_conv_3x3): SeparatedConv(
    (0_conv1): Conv2d(16, 16, kernel_size=(3, 3), stride=(1, 1), padding=(1, 1), groups=16, bias=False)
    (0_conv2): Conv2d(16, 16, kernel_size=(1, 1), stride=(1, 1), bias=False)
    (0_batch): BatchNorm2d(16, eps=1e-05, momentum=0.1, affine=False, track_running_stats=True)
    (0_relu): Relu()
  )
  (sep_conv_5x5): SeparatedConv(
    (0_conv1): Conv2d(16, 16, kernel_size=(5, 5), stride=(1, 1), padding=(2, 2), groups=16, bias=False)
    (0_conv2): Conv2d(16, 16, kernel_size=(1, 1), stride=(1, 1), bias=False)
    (0_batch): BatchNorm2d(16, eps=1e-05, momentum=0.1, affine=False, track_running_stats=True)
    (0_relu): Relu()
  )
  (dil_conv_3x3): DilConv(
    (relu): Relu()
    (conv1): Conv2d(16, 16, kernel_size=(3, 3), stride=(1, 1), padding=(2, 2), dilation=(2, 2), groups=16, bias=False)
    (conv2): Conv2d(16, 16, kernel_size=(1, 1), stride=(1, 1), bias=False)
    (batch): BatchNorm2d(16, eps=1e-05, momentum=0.1, affine=False, track_running_stats=True)
  )
  (dil_conv_5x5): DilConv(
    (relu): Relu()
    (conv1): Conv2d(16, 16, kernel_size=(5, 5), stride=(1, 1), padding=(4, 4), dilation=(2, 2), groups=16, bias=False)
    (conv2): Conv2d(16, 16, kernel_size=(1, 1), stride=(1, 1), bias=False)
    (batch): BatchNorm2d(16, eps=1e-05, momentum=0.1, affine=False, track_running_stats=True)
  )
)
pytorch_fn.py: Module: forward(): call()
mix_ops.py: MixedOp: call(): for idx, op in enumerate(self.children()):  0 Zero() <class 'vega.modules.operators.functions.pytorch_fn.Zero'>
mix_ops.py: MixedOp: call(): for idx, op in enumerate(self.children()):  1 Seq(
  (0): MaxPool2d(kernel_size=3, stride=1, padding=1, dilation=1, ceil_mode=False)
  (1): BatchNorm2d(16, eps=1e-05, momentum=0.1, affine=False, track_running_stats=True)
) <class 'vega.modules.operators.conv.Seq'>
pytorch_fn.py: Module: forward(): call()
pytorch_fn.py: Module: call():
mix_ops.py: MixedOp: call(): for idx, op in enumerate(self.children()):  2 Seq(
  (0): AvgPool2d(kernel_size=3, stride=1, padding=1)
  (1): BatchNorm2d(16, eps=1e-05, momentum=0.1, affine=False, track_running_stats=True)
) <class 'vega.modules.operators.conv.Seq'>
pytorch_fn.py: Module: forward(): call()
pytorch_fn.py: Module: call():
mix_ops.py: MixedOp: call(): for idx, op in enumerate(self.children()):  3 Identity() <class 'vega.modules.operators.functions.pytorch_fn.Identity'>
mix_ops.py: MixedOp: call(): for idx, op in enumerate(self.children()):  4 SeparatedConv(
  (0_conv1): Conv2d(16, 16, kernel_size=(3, 3), stride=(1, 1), padding=(1, 1), groups=16, bias=False)
  (0_conv2): Conv2d(16, 16, kernel_size=(1, 1), stride=(1, 1), bias=False)
  (0_batch): BatchNorm2d(16, eps=1e-05, momentum=0.1, affine=False, track_running_stats=True)
  (0_relu): Relu()
) <class 'vega.modules.operators.conv.SeparatedConv'>
pytorch_fn.py: Module: forward(): call()
pytorch_fn.py: Module: call():
mix_ops.py: MixedOp: call(): for idx, op in enumerate(self.children()):  5 SeparatedConv(
  (0_conv1): Conv2d(16, 16, kernel_size=(5, 5), stride=(1, 1), padding=(2, 2), groups=16, bias=False)
  (0_conv2): Conv2d(16, 16, kernel_size=(1, 1), stride=(1, 1), bias=False)
  (0_batch): BatchNorm2d(16, eps=1e-05, momentum=0.1, affine=False, track_running_stats=True)
  (0_relu): Relu()
) <class 'vega.modules.operators.conv.SeparatedConv'>
pytorch_fn.py: Module: forward(): call()
pytorch_fn.py: Module: call():
mix_ops.py: MixedOp: call(): for idx, op in enumerate(self.children()):  6 DilConv(
  (relu): Relu()
  (conv1): Conv2d(16, 16, kernel_size=(3, 3), stride=(1, 1), padding=(2, 2), dilation=(2, 2), groups=16, bias=False)
  (conv2): Conv2d(16, 16, kernel_size=(1, 1), stride=(1, 1), bias=False)
  (batch): BatchNorm2d(16, eps=1e-05, momentum=0.1, affine=False, track_running_stats=True)
) <class 'vega.modules.operators.conv.DilConv'>
pytorch_fn.py: Module: forward(): call()
pytorch_fn.py: Module: call():
mix_ops.py: MixedOp: call(): for idx, op in enumerate(self.children()):  7 DilConv(
  (relu): Relu()
  (conv1): Conv2d(16, 16, kernel_size=(5, 5), stride=(1, 1), padding=(4, 4), dilation=(2, 2), groups=16, bias=False)
  (conv2): Conv2d(16, 16, kernel_size=(1, 1), stride=(1, 1), bias=False)
  (batch): BatchNorm2d(16, eps=1e-05, momentum=0.1, affine=False, track_running_stats=True)
) <class 'vega.modules.operators.conv.DilConv'>
pytorch_fn.py: Module: forward(): call()
pytorch_fn.py: Module: call():
cell.py: Cell: call(): j, inp:  4 4
cell.py: Cell: call(): op:  MixedOp(
  (none): Zero()
  (max_pool_3x3): Seq(
    (0): MaxPool2d(kernel_size=3, stride=1, padding=1, dilation=1, ceil_mode=False)
    (1): BatchNorm2d(16, eps=1e-05, momentum=0.1, affine=False, track_running_stats=True)
  )
  (avg_pool_3x3): Seq(
    (0): AvgPool2d(kernel_size=3, stride=1, padding=1)
    (1): BatchNorm2d(16, eps=1e-05, momentum=0.1, affine=False, track_running_stats=True)
  )
  (skip_connect): Identity()
  (sep_conv_3x3): SeparatedConv(
    (0_conv1): Conv2d(16, 16, kernel_size=(3, 3), stride=(1, 1), padding=(1, 1), groups=16, bias=False)
    (0_conv2): Conv2d(16, 16, kernel_size=(1, 1), stride=(1, 1), bias=False)
    (0_batch): BatchNorm2d(16, eps=1e-05, momentum=0.1, affine=False, track_running_stats=True)
    (0_relu): Relu()
  )
  (sep_conv_5x5): SeparatedConv(
    (0_conv1): Conv2d(16, 16, kernel_size=(5, 5), stride=(1, 1), padding=(2, 2), groups=16, bias=False)
    (0_conv2): Conv2d(16, 16, kernel_size=(1, 1), stride=(1, 1), bias=False)
    (0_batch): BatchNorm2d(16, eps=1e-05, momentum=0.1, affine=False, track_running_stats=True)
    (0_relu): Relu()
  )
  (dil_conv_3x3): DilConv(
    (relu): Relu()
    (conv1): Conv2d(16, 16, kernel_size=(3, 3), stride=(1, 1), padding=(2, 2), dilation=(2, 2), groups=16, bias=False)
    (conv2): Conv2d(16, 16, kernel_size=(1, 1), stride=(1, 1), bias=False)
    (batch): BatchNorm2d(16, eps=1e-05, momentum=0.1, affine=False, track_running_stats=True)
  )
  (dil_conv_5x5): DilConv(
    (relu): Relu()
    (conv1): Conv2d(16, 16, kernel_size=(5, 5), stride=(1, 1), padding=(4, 4), dilation=(2, 2), groups=16, bias=False)
    (conv2): Conv2d(16, 16, kernel_size=(1, 1), stride=(1, 1), bias=False)
    (batch): BatchNorm2d(16, eps=1e-05, momentum=0.1, affine=False, track_running_stats=True)
  )
)
pytorch_fn.py: Module: forward(): call()
mix_ops.py: MixedOp: call(): for idx, op in enumerate(self.children()):  0 Zero() <class 'vega.modules.operators.functions.pytorch_fn.Zero'>
mix_ops.py: MixedOp: call(): for idx, op in enumerate(self.children()):  1 Seq(
  (0): MaxPool2d(kernel_size=3, stride=1, padding=1, dilation=1, ceil_mode=False)
  (1): BatchNorm2d(16, eps=1e-05, momentum=0.1, affine=False, track_running_stats=True)
) <class 'vega.modules.operators.conv.Seq'>
pytorch_fn.py: Module: forward(): call()
pytorch_fn.py: Module: call():
mix_ops.py: MixedOp: call(): for idx, op in enumerate(self.children()):  2 Seq(
  (0): AvgPool2d(kernel_size=3, stride=1, padding=1)
  (1): BatchNorm2d(16, eps=1e-05, momentum=0.1, affine=False, track_running_stats=True)
) <class 'vega.modules.operators.conv.Seq'>
pytorch_fn.py: Module: forward(): call()
pytorch_fn.py: Module: call():
mix_ops.py: MixedOp: call(): for idx, op in enumerate(self.children()):  3 Identity() <class 'vega.modules.operators.functions.pytorch_fn.Identity'>
mix_ops.py: MixedOp: call(): for idx, op in enumerate(self.children()):  4 SeparatedConv(
  (0_conv1): Conv2d(16, 16, kernel_size=(3, 3), stride=(1, 1), padding=(1, 1), groups=16, bias=False)
  (0_conv2): Conv2d(16, 16, kernel_size=(1, 1), stride=(1, 1), bias=False)
  (0_batch): BatchNorm2d(16, eps=1e-05, momentum=0.1, affine=False, track_running_stats=True)
  (0_relu): Relu()
) <class 'vega.modules.operators.conv.SeparatedConv'>
pytorch_fn.py: Module: forward(): call()
pytorch_fn.py: Module: call():
mix_ops.py: MixedOp: call(): for idx, op in enumerate(self.children()):  5 SeparatedConv(
  (0_conv1): Conv2d(16, 16, kernel_size=(5, 5), stride=(1, 1), padding=(2, 2), groups=16, bias=False)
  (0_conv2): Conv2d(16, 16, kernel_size=(1, 1), stride=(1, 1), bias=False)
  (0_batch): BatchNorm2d(16, eps=1e-05, momentum=0.1, affine=False, track_running_stats=True)
  (0_relu): Relu()
) <class 'vega.modules.operators.conv.SeparatedConv'>
pytorch_fn.py: Module: forward(): call()
pytorch_fn.py: Module: call():
mix_ops.py: MixedOp: call(): for idx, op in enumerate(self.children()):  6 DilConv(
  (relu): Relu()
  (conv1): Conv2d(16, 16, kernel_size=(3, 3), stride=(1, 1), padding=(2, 2), dilation=(2, 2), groups=16, bias=False)
  (conv2): Conv2d(16, 16, kernel_size=(1, 1), stride=(1, 1), bias=False)
  (batch): BatchNorm2d(16, eps=1e-05, momentum=0.1, affine=False, track_running_stats=True)
) <class 'vega.modules.operators.conv.DilConv'>
pytorch_fn.py: Module: forward(): call()
pytorch_fn.py: Module: call():
mix_ops.py: MixedOp: call(): for idx, op in enumerate(self.children()):  7 DilConv(
  (relu): Relu()
  (conv1): Conv2d(16, 16, kernel_size=(5, 5), stride=(1, 1), padding=(4, 4), dilation=(2, 2), groups=16, bias=False)
  (conv2): Conv2d(16, 16, kernel_size=(1, 1), stride=(1, 1), bias=False)
  (batch): BatchNorm2d(16, eps=1e-05, momentum=0.1, affine=False, track_running_stats=True)
) <class 'vega.modules.operators.conv.DilConv'>
pytorch_fn.py: Module: forward(): call()
pytorch_fn.py: Module: call():
super_network.py: DartsNetwork: call(): i:  1 <class 'vega.modules.operators.cell.NormalCell'>
pytorch_fn.py: Module: forward(): call()
cell.py: Cell: call(): Cell call self.steps:  4
cell.py: Cell: call(): Cell call out_inp_list:  [[0, 1], [0, 1, 2], [0, 1, 2, 3], [0, 1, 2, 3, 4]]
…
pytorch_fn.py: Module: forward(): call()
cell.py: Cell: call(): Cell call self.steps:  4
cell.py: Cell: call(): Cell call out_inp_list:  [[0, 1], [0, 1, 2], [0, 1, 2, 3], [0, 1, 2, 3, 4]]
cell.py: Cell: call(): preprocess0
pytorch_fn.py: Module: forward(): call()
pytorch_fn.py: Module: call():
cell.py: Cell: call(): preprocess1
pytorch_fn.py: Module: forward(): call()
pytorch_fn.py: Module: call():
cell.py: Cell: call(): j, inp:  0 0
cell.py: Cell: call(): op:  MixedOp(
  (none): Zero()
  (max_pool_3x3): Seq(
    (0): MaxPool2d(kernel_size=3, stride=2, padding=1, dilation=1, ceil_mode=False)
    (1): BatchNorm2d(32, eps=1e-05, momentum=0.1, affine=False, track_running_stats=True)
  )
  (avg_pool_3x3): Seq(
    (0): AvgPool2d(kernel_size=3, stride=2, padding=1)
    (1): BatchNorm2d(32, eps=1e-05, momentum=0.1, affine=False, track_running_stats=True)
  )
  (skip_connect): FactorizedReduce(
    (relu): Relu()
    (conv_1): Conv2d(32, 16, kernel_size=(1, 1), stride=(2, 2), bias=False)
    (conv_2): Conv2d(32, 16, kernel_size=(1, 1), stride=(2, 2), bias=False)
    (bn): BatchNorm2d(32, eps=1e-05, momentum=0.1, affine=False, track_running_stats=True)
  )
  (sep_conv_3x3): SeparatedConv(
    (0_conv1): Conv2d(32, 32, kernel_size=(3, 3), stride=(2, 2), padding=(1, 1), groups=32, bias=False)
    (0_conv2): Conv2d(32, 32, kernel_size=(1, 1), stride=(1, 1), bias=False)
    (0_batch): BatchNorm2d(32, eps=1e-05, momentum=0.1, affine=False, track_running_stats=True)
    (0_relu): Relu()
  )
  (sep_conv_5x5): SeparatedConv(
    (0_conv1): Conv2d(32, 32, kernel_size=(5, 5), stride=(2, 2), padding=(2, 2), groups=32, bias=False)
    (0_conv2): Conv2d(32, 32, kernel_size=(1, 1), stride=(1, 1), bias=False)
    (0_batch): BatchNorm2d(32, eps=1e-05, momentum=0.1, affine=False, track_running_stats=True)
    (0_relu): Relu()
  )
  (dil_conv_3x3): DilConv(
    (relu): Relu()
    (conv1): Conv2d(32, 32, kernel_size=(3, 3), stride=(2, 2), padding=(2, 2), dilation=(2, 2), groups=32, bias=False)
    (conv2): Conv2d(32, 32, kernel_size=(1, 1), stride=(1, 1), bias=False)
    (batch): BatchNorm2d(32, eps=1e-05, momentum=0.1, affine=False, track_running_stats=True)
  )
  (dil_conv_5x5): DilConv(
    (relu): Relu()
    (conv1): Conv2d(32, 32, kernel_size=(5, 5), stride=(2, 2), padding=(4, 4), dilation=(2, 2), groups=32, bias=False)
    (conv2): Conv2d(32, 32, kernel_size=(1, 1), stride=(1, 1), bias=False)
    (batch): BatchNorm2d(32, eps=1e-05, momentum=0.1, affine=False, track_running_stats=True)
  )
)
pytorch_fn.py: Module: forward(): call()
mix_ops.py: MixedOp: call(): for idx, op in enumerate(self.children()):  0 Zero() <class 'vega.modules.operators.functions.pytorch_fn.Zero'>
mix_ops.py: MixedOp: call(): for idx, op in enumerate(self.children()):  1 Seq(
  (0): MaxPool2d(kernel_size=3, stride=2, padding=1, dilation=1, ceil_mode=False)
  (1): BatchNorm2d(32, eps=1e-05, momentum=0.1, affine=False, track_running_stats=True)
) <class 'vega.modules.operators.conv.Seq'>
pytorch_fn.py: Module: forward(): call()
pytorch_fn.py: Module: call():
mix_ops.py: MixedOp: call(): for idx, op in enumerate(self.children()):  2 Seq(
  (0): AvgPool2d(kernel_size=3, stride=2, padding=1)
  (1): BatchNorm2d(32, eps=1e-05, momentum=0.1, affine=False, track_running_stats=True)
) <class 'vega.modules.operators.conv.Seq'>
pytorch_fn.py: Module: forward(): call()
pytorch_fn.py: Module: call():
mix_ops.py: MixedOp: call(): for idx, op in enumerate(self.children()):  3 FactorizedReduce(
  (relu): Relu()
  (conv_1): Conv2d(32, 16, kernel_size=(1, 1), stride=(2, 2), bias=False)
  (conv_2): Conv2d(32, 16, kernel_size=(1, 1), stride=(2, 2), bias=False)
  (bn): BatchNorm2d(32, eps=1e-05, momentum=0.1, affine=False, track_running_stats=True)
) <class 'vega.modules.operators.conv.FactorizedReduce'>
pytorch_fn.py: Module: forward(): call()
mix_ops.py: MixedOp: call(): for idx, op in enumerate(self.children()):  4 SeparatedConv(
  (0_conv1): Conv2d(32, 32, kernel_size=(3, 3), stride=(2, 2), padding=(1, 1), groups=32, bias=False)
  (0_conv2): Conv2d(32, 32, kernel_size=(1, 1), stride=(1, 1), bias=False)
  (0_batch): BatchNorm2d(32, eps=1e-05, momentum=0.1, affine=False, track_running_stats=True)
  (0_relu): Relu()
) <class 'vega.modules.operators.conv.SeparatedConv'>
pytorch_fn.py: Module: forward(): call()
pytorch_fn.py: Module: call():
mix_ops.py: MixedOp: call(): for idx, op in enumerate(self.children()):  5 SeparatedConv(
  (0_conv1): Conv2d(32, 32, kernel_size=(5, 5), stride=(2, 2), padding=(2, 2), groups=32, bias=False)
  (0_conv2): Conv2d(32, 32, kernel_size=(1, 1), stride=(1, 1), bias=False)
  (0_batch): BatchNorm2d(32, eps=1e-05, momentum=0.1, affine=False, track_running_stats=True)
  (0_relu): Relu()
) <class 'vega.modules.operators.conv.SeparatedConv'>
pytorch_fn.py: Module: forward(): call()
pytorch_fn.py: Module: call():
mix_ops.py: MixedOp: call(): for idx, op in enumerate(self.children()):  6 DilConv(
  (relu): Relu()
  (conv1): Conv2d(32, 32, kernel_size=(3, 3), stride=(2, 2), padding=(2, 2), dilation=(2, 2), groups=32, bias=False)
  (conv2): Conv2d(32, 32, kernel_size=(1, 1), stride=(1, 1), bias=False)
  (batch): BatchNorm2d(32, eps=1e-05, momentum=0.1, affine=False, track_running_stats=True)
) <class 'vega.modules.operators.conv.DilConv'>
pytorch_fn.py: Module: forward(): call()
pytorch_fn.py: Module: call():
mix_ops.py: MixedOp: call(): for idx, op in enumerate(self.children()):  7 DilConv(
  (relu): Relu()
  (conv1): Conv2d(32, 32, kernel_size=(5, 5), stride=(2, 2), padding=(4, 4), dilation=(2, 2), groups=32, bias=False)
  (conv2): Conv2d(32, 32, kernel_size=(1, 1), stride=(1, 1), bias=False)
  (batch): BatchNorm2d(32, eps=1e-05, momentum=0.1, affine=False, track_running_stats=True)
) <class 'vega.modules.operators.conv.DilConv'>
pytorch_fn.py: Module: forward(): call()
pytorch_fn.py: Module: call():
cell.py: Cell: call(): j, inp:  1 1
cell.py: Cell: call(): op:  MixedOp(
  (none): Zero()
  (max_pool_3x3): Seq(
    (0): MaxPool2d(kernel_size=3, stride=2, padding=1, dilation=1, ceil_mode=False)
    (1): BatchNorm2d(32, eps=1e-05, momentum=0.1, affine=False, track_running_stats=True)
  )
  (avg_pool_3x3): Seq(
    (0): AvgPool2d(kernel_size=3, stride=2, padding=1)
    (1): BatchNorm2d(32, eps=1e-05, momentum=0.1, affine=False, track_running_stats=True)
  )
  (skip_connect): FactorizedReduce(
    (relu): Relu()
    (conv_1): Conv2d(32, 16, kernel_size=(1, 1), stride=(2, 2), bias=False)
    (conv_2): Conv2d(32, 16, kernel_size=(1, 1), stride=(2, 2), bias=False)
    (bn): BatchNorm2d(32, eps=1e-05, momentum=0.1, affine=False, track_running_stats=True)
  )
  (sep_conv_3x3): SeparatedConv(
    (0_conv1): Conv2d(32, 32, kernel_size=(3, 3), stride=(2, 2), padding=(1, 1), groups=32, bias=False)
    (0_conv2): Conv2d(32, 32, kernel_size=(1, 1), stride=(1, 1), bias=False)
    (0_batch): BatchNorm2d(32, eps=1e-05, momentum=0.1, affine=False, track_running_stats=True)
    (0_relu): Relu()
  )
  (sep_conv_5x5): SeparatedConv(
    (0_conv1): Conv2d(32, 32, kernel_size=(5, 5), stride=(2, 2), padding=(2, 2), groups=32, bias=False)
    (0_conv2): Conv2d(32, 32, kernel_size=(1, 1), stride=(1, 1), bias=False)
    (0_batch): BatchNorm2d(32, eps=1e-05, momentum=0.1, affine=False, track_running_stats=True)
    (0_relu): Relu()
  )
  (dil_conv_3x3): DilConv(
    (relu): Relu()
    (conv1): Conv2d(32, 32, kernel_size=(3, 3), stride=(2, 2), padding=(2, 2), dilation=(2, 2), groups=32, bias=False)
    (conv2): Conv2d(32, 32, kernel_size=(1, 1), stride=(1, 1), bias=False)
    (batch): BatchNorm2d(32, eps=1e-05, momentum=0.1, affine=False, track_running_stats=True)
  )
  (dil_conv_5x5): DilConv(
    (relu): Relu()
    (conv1): Conv2d(32, 32, kernel_size=(5, 5), stride=(2, 2), padding=(4, 4), dilation=(2, 2), groups=32, bias=False)
    (conv2): Conv2d(32, 32, kernel_size=(1, 1), stride=(1, 1), bias=False)
    (batch): BatchNorm2d(32, eps=1e-05, momentum=0.1, affine=False, track_running_stats=True)
  )
)
pytorch_fn.py: Module: forward(): call()
mix_ops.py: MixedOp: call(): for idx, op in enumerate(self.children()):  0 Zero() <class 'vega.modules.operators.functions.pytorch_fn.Zero'>
mix_ops.py: MixedOp: call(): for idx, op in enumerate(self.children()):  1 Seq(
  (0): MaxPool2d(kernel_size=3, stride=2, padding=1, dilation=1, ceil_mode=False)
  (1): BatchNorm2d(32, eps=1e-05, momentum=0.1, affine=False, track_running_stats=True)
) <class 'vega.modules.operators.conv.Seq'>
pytorch_fn.py: Module: forward(): call()
pytorch_fn.py: Module: call():
mix_ops.py: MixedOp: call(): for idx, op in enumerate(self.children()):  2 Seq(
  (0): AvgPool2d(kernel_size=3, stride=2, padding=1)
  (1): BatchNorm2d(32, eps=1e-05, momentum=0.1, affine=False, track_running_stats=True)
) <class 'vega.modules.operators.conv.Seq'>
pytorch_fn.py: Module: forward(): call()
pytorch_fn.py: Module: call():
mix_ops.py: MixedOp: call(): for idx, op in enumerate(self.children()):  3 FactorizedReduce(
  (relu): Relu()
  (conv_1): Conv2d(32, 16, kernel_size=(1, 1), stride=(2, 2), bias=False)
  (conv_2): Conv2d(32, 16, kernel_size=(1, 1), stride=(2, 2), bias=False)
  (bn): BatchNorm2d(32, eps=1e-05, momentum=0.1, affine=False, track_running_stats=True)
) <class 'vega.modules.operators.conv.FactorizedReduce'>
pytorch_fn.py: Module: forward(): call()
mix_ops.py: MixedOp: call(): for idx, op in enumerate(self.children()):  4 SeparatedConv(
  (0_conv1): Conv2d(32, 32, kernel_size=(3, 3), stride=(2, 2), padding=(1, 1), groups=32, bias=False)
  (0_conv2): Conv2d(32, 32, kernel_size=(1, 1), stride=(1, 1), bias=False)
  (0_batch): BatchNorm2d(32, eps=1e-05, momentum=0.1, affine=False, track_running_stats=True)
  (0_relu): Relu()
) <class 'vega.modules.operators.conv.SeparatedConv'>
pytorch_fn.py: Module: forward(): call()
pytorch_fn.py: Module: call():
mix_ops.py: MixedOp: call(): for idx, op in enumerate(self.children()):  5 SeparatedConv(
  (0_conv1): Conv2d(32, 32, kernel_size=(5, 5), stride=(2, 2), padding=(2, 2), groups=32, bias=False)
  (0_conv2): Conv2d(32, 32, kernel_size=(1, 1), stride=(1, 1), bias=False)
  (0_batch): BatchNorm2d(32, eps=1e-05, momentum=0.1, affine=False, track_running_stats=True)
  (0_relu): Relu()
) <class 'vega.modules.operators.conv.SeparatedConv'>
pytorch_fn.py: Module: forward(): call()
pytorch_fn.py: Module: call():
mix_ops.py: MixedOp: call(): for idx, op in enumerate(self.children()):  6 DilConv(
  (relu): Relu()
  (conv1): Conv2d(32, 32, kernel_size=(3, 3), stride=(2, 2), padding=(2, 2), dilation=(2, 2), groups=32, bias=False)
  (conv2): Conv2d(32, 32, kernel_size=(1, 1), stride=(1, 1), bias=False)
  (batch): BatchNorm2d(32, eps=1e-05, momentum=0.1, affine=False, track_running_stats=True)
) <class 'vega.modules.operators.conv.DilConv'>
pytorch_fn.py: Module: forward(): call()
pytorch_fn.py: Module: call():
mix_ops.py: MixedOp: call(): for idx, op in enumerate(self.children()):  7 DilConv(
  (relu): Relu()
  (conv1): Conv2d(32, 32, kernel_size=(5, 5), stride=(2, 2), padding=(4, 4), dilation=(2, 2), groups=32, bias=False)
  (conv2): Conv2d(32, 32, kernel_size=(1, 1), stride=(1, 1), bias=False)
  (batch): BatchNorm2d(32, eps=1e-05, momentum=0.1, affine=False, track_running_stats=True)
) <class 'vega.modules.operators.conv.DilConv'>
pytorch_fn.py: Module: forward(): call()
pytorch_fn.py: Module: call():
cell.py: Cell: call(): j, inp:  0 0
cell.py: Cell: call(): op:  MixedOp(
  (none): Zero()
  (max_pool_3x3): Seq(
    (0): MaxPool2d(kernel_size=3, stride=2, padding=1, dilation=1, ceil_mode=False)
    (1): BatchNorm2d(32, eps=1e-05, momentum=0.1, affine=False, track_running_stats=True)
  )
  (avg_pool_3x3): Seq(
    (0): AvgPool2d(kernel_size=3, stride=2, padding=1)
    (1): BatchNorm2d(32, eps=1e-05, momentum=0.1, affine=False, track_running_stats=True)
  )
  (skip_connect): FactorizedReduce(
    (relu): Relu()
    (conv_1): Conv2d(32, 16, kernel_size=(1, 1), stride=(2, 2), bias=False)
    (conv_2): Conv2d(32, 16, kernel_size=(1, 1), stride=(2, 2), bias=False)
    (bn): BatchNorm2d(32, eps=1e-05, momentum=0.1, affine=False, track_running_stats=True)
  )
  (sep_conv_3x3): SeparatedConv(
    (0_conv1): Conv2d(32, 32, kernel_size=(3, 3), stride=(2, 2), padding=(1, 1), groups=32, bias=False)
    (0_conv2): Conv2d(32, 32, kernel_size=(1, 1), stride=(1, 1), bias=False)
    (0_batch): BatchNorm2d(32, eps=1e-05, momentum=0.1, affine=False, track_running_stats=True)
    (0_relu): Relu()
  )
  (sep_conv_5x5): SeparatedConv(
    (0_conv1): Conv2d(32, 32, kernel_size=(5, 5), stride=(2, 2), padding=(2, 2), groups=32, bias=False)
    (0_conv2): Conv2d(32, 32, kernel_size=(1, 1), stride=(1, 1), bias=False)
    (0_batch): BatchNorm2d(32, eps=1e-05, momentum=0.1, affine=False, track_running_stats=True)
    (0_relu): Relu()
  )
  (dil_conv_3x3): DilConv(
    (relu): Relu()
    (conv1): Conv2d(32, 32, kernel_size=(3, 3), stride=(2, 2), padding=(2, 2), dilation=(2, 2), groups=32, bias=False)
    (conv2): Conv2d(32, 32, kernel_size=(1, 1), stride=(1, 1), bias=False)
    (batch): BatchNorm2d(32, eps=1e-05, momentum=0.1, affine=False, track_running_stats=True)
  )
  (dil_conv_5x5): DilConv(
    (relu): Relu()
    (conv1): Conv2d(32, 32, kernel_size=(5, 5), stride=(2, 2), padding=(4, 4), dilation=(2, 2), groups=32, bias=False)
    (conv2): Conv2d(32, 32, kernel_size=(1, 1), stride=(1, 1), bias=False)
    (batch): BatchNorm2d(32, eps=1e-05, momentum=0.1, affine=False, track_running_stats=True)
  )
)
pytorch_fn.py: Module: forward(): call()
mix_ops.py: MixedOp: call(): for idx, op in enumerate(self.children()):  0 Zero() <class 'vega.modules.operators.functions.pytorch_fn.Zero'>
mix_ops.py: MixedOp: call(): for idx, op in enumerate(self.children()):  1 Seq(
  (0): MaxPool2d(kernel_size=3, stride=2, padding=1, dilation=1, ceil_mode=False)
  (1): BatchNorm2d(32, eps=1e-05, momentum=0.1, affine=False, track_running_stats=True)
) <class 'vega.modules.operators.conv.Seq'>
pytorch_fn.py: Module: forward(): call()
pytorch_fn.py: Module: call():
mix_ops.py: MixedOp: call(): for idx, op in enumerate(self.children()):  2 Seq(
  (0): AvgPool2d(kernel_size=3, stride=2, padding=1)
  (1): BatchNorm2d(32, eps=1e-05, momentum=0.1, affine=False, track_running_stats=True)
) <class 'vega.modules.operators.conv.Seq'>
pytorch_fn.py: Module: forward(): call()
pytorch_fn.py: Module: call():
mix_ops.py: MixedOp: call(): for idx, op in enumerate(self.children()):  3 FactorizedReduce(
  (relu): Relu()
  (conv_1): Conv2d(32, 16, kernel_size=(1, 1), stride=(2, 2), bias=False)
  (conv_2): Conv2d(32, 16, kernel_size=(1, 1), stride=(2, 2), bias=False)
  (bn): BatchNorm2d(32, eps=1e-05, momentum=0.1, affine=False, track_running_stats=True)
) <class 'vega.modules.operators.conv.FactorizedReduce'>
pytorch_fn.py: Module: forward(): call()
mix_ops.py: MixedOp: call(): for idx, op in enumerate(self.children()):  4 SeparatedConv(
  (0_conv1): Conv2d(32, 32, kernel_size=(3, 3), stride=(2, 2), padding=(1, 1), groups=32, bias=False)
  (0_conv2): Conv2d(32, 32, kernel_size=(1, 1), stride=(1, 1), bias=False)
  (0_batch): BatchNorm2d(32, eps=1e-05, momentum=0.1, affine=False, track_running_stats=True)
  (0_relu): Relu()
) <class 'vega.modules.operators.conv.SeparatedConv'>
pytorch_fn.py: Module: forward(): call()
pytorch_fn.py: Module: call():
mix_ops.py: MixedOp: call(): for idx, op in enumerate(self.children()):  5 SeparatedConv(
  (0_conv1): Conv2d(32, 32, kernel_size=(5, 5), stride=(2, 2), padding=(2, 2), groups=32, bias=False)
  (0_conv2): Conv2d(32, 32, kernel_size=(1, 1), stride=(1, 1), bias=False)
  (0_batch): BatchNorm2d(32, eps=1e-05, momentum=0.1, affine=False, track_running_stats=True)
  (0_relu): Relu()
) <class 'vega.modules.operators.conv.SeparatedConv'>
pytorch_fn.py: Module: forward(): call()
pytorch_fn.py: Module: call():
mix_ops.py: MixedOp: call(): for idx, op in enumerate(self.children()):  6 DilConv(
  (relu): Relu()
  (conv1): Conv2d(32, 32, kernel_size=(3, 3), stride=(2, 2), padding=(2, 2), dilation=(2, 2), groups=32, bias=False)
  (conv2): Conv2d(32, 32, kernel_size=(1, 1), stride=(1, 1), bias=False)
  (batch): BatchNorm2d(32, eps=1e-05, momentum=0.1, affine=False, track_running_stats=True)
) <class 'vega.modules.operators.conv.DilConv'>
pytorch_fn.py: Module: forward(): call()
pytorch_fn.py: Module: call():
mix_ops.py: MixedOp: call(): for idx, op in enumerate(self.children()):  7 DilConv(
  (relu): Relu()
  (conv1): Conv2d(32, 32, kernel_size=(5, 5), stride=(2, 2), padding=(4, 4), dilation=(2, 2), groups=32, bias=False)
  (conv2): Conv2d(32, 32, kernel_size=(1, 1), stride=(1, 1), bias=False)
  (batch): BatchNorm2d(32, eps=1e-05, momentum=0.1, affine=False, track_running_stats=True)
) <class 'vega.modules.operators.conv.DilConv'>
pytorch_fn.py: Module: forward(): call()
pytorch_fn.py: Module: call():
cell.py: Cell: call(): j, inp:  1 1
cell.py: Cell: call(): op:  MixedOp(
  (none): Zero()
  (max_pool_3x3): Seq(
    (0): MaxPool2d(kernel_size=3, stride=2, padding=1, dilation=1, ceil_mode=False)
    (1): BatchNorm2d(32, eps=1e-05, momentum=0.1, affine=False, track_running_stats=True)
  )
  (avg_pool_3x3): Seq(
    (0): AvgPool2d(kernel_size=3, stride=2, padding=1)
    (1): BatchNorm2d(32, eps=1e-05, momentum=0.1, affine=False, track_running_stats=True)
  )
  (skip_connect): FactorizedReduce(
    (relu): Relu()
    (conv_1): Conv2d(32, 16, kernel_size=(1, 1), stride=(2, 2), bias=False)
    (conv_2): Conv2d(32, 16, kernel_size=(1, 1), stride=(2, 2), bias=False)
    (bn): BatchNorm2d(32, eps=1e-05, momentum=0.1, affine=False, track_running_stats=True)
  )
  (sep_conv_3x3): SeparatedConv(
    (0_conv1): Conv2d(32, 32, kernel_size=(3, 3), stride=(2, 2), padding=(1, 1), groups=32, bias=False)
    (0_conv2): Conv2d(32, 32, kernel_size=(1, 1), stride=(1, 1), bias=False)
    (0_batch): BatchNorm2d(32, eps=1e-05, momentum=0.1, affine=False, track_running_stats=True)
    (0_relu): Relu()
  )
  (sep_conv_5x5): SeparatedConv(
    (0_conv1): Conv2d(32, 32, kernel_size=(5, 5), stride=(2, 2), padding=(2, 2), groups=32, bias=False)
    (0_conv2): Conv2d(32, 32, kernel_size=(1, 1), stride=(1, 1), bias=False)
    (0_batch): BatchNorm2d(32, eps=1e-05, momentum=0.1, affine=False, track_running_stats=True)
    (0_relu): Relu()
  )
  (dil_conv_3x3): DilConv(
    (relu): Relu()
    (conv1): Conv2d(32, 32, kernel_size=(3, 3), stride=(2, 2), padding=(2, 2), dilation=(2, 2), groups=32, bias=False)
    (conv2): Conv2d(32, 32, kernel_size=(1, 1), stride=(1, 1), bias=False)
    (batch): BatchNorm2d(32, eps=1e-05, momentum=0.1, affine=False, track_running_stats=True)
  )
  (dil_conv_5x5): DilConv(
    (relu): Relu()
    (conv1): Conv2d(32, 32, kernel_size=(5, 5), stride=(2, 2), padding=(4, 4), dilation=(2, 2), groups=32, bias=False)
    (conv2): Conv2d(32, 32, kernel_size=(1, 1), stride=(1, 1), bias=False)
    (batch): BatchNorm2d(32, eps=1e-05, momentum=0.1, affine=False, track_running_stats=True)
  )
)
pytorch_fn.py: Module: forward(): call()
mix_ops.py: MixedOp: call(): for idx, op in enumerate(self.children()):  0 Zero() <class 'vega.modules.operators.functions.pytorch_fn.Zero'>
mix_ops.py: MixedOp: call(): for idx, op in enumerate(self.children()):  1 Seq(
  (0): MaxPool2d(kernel_size=3, stride=2, padding=1, dilation=1, ceil_mode=False)
  (1): BatchNorm2d(32, eps=1e-05, momentum=0.1, affine=False, track_running_stats=True)
) <class 'vega.modules.operators.conv.Seq'>
pytorch_fn.py: Module: forward(): call()
pytorch_fn.py: Module: call():
mix_ops.py: MixedOp: call(): for idx, op in enumerate(self.children()):  2 Seq(
  (0): AvgPool2d(kernel_size=3, stride=2, padding=1)
  (1): BatchNorm2d(32, eps=1e-05, momentum=0.1, affine=False, track_running_stats=True)
) <class 'vega.modules.operators.conv.Seq'>
pytorch_fn.py: Module: forward(): call()
pytorch_fn.py: Module: call():
mix_ops.py: MixedOp: call(): for idx, op in enumerate(self.children()):  3 FactorizedReduce(
  (relu): Relu()
  (conv_1): Conv2d(32, 16, kernel_size=(1, 1), stride=(2, 2), bias=False)
  (conv_2): Conv2d(32, 16, kernel_size=(1, 1), stride=(2, 2), bias=False)
  (bn): BatchNorm2d(32, eps=1e-05, momentum=0.1, affine=False, track_running_stats=True)
) <class 'vega.modules.operators.conv.FactorizedReduce'>
pytorch_fn.py: Module: forward(): call()
mix_ops.py: MixedOp: call(): for idx, op in enumerate(self.children()):  4 SeparatedConv(
  (0_conv1): Conv2d(32, 32, kernel_size=(3, 3), stride=(2, 2), padding=(1, 1), groups=32, bias=False)
  (0_conv2): Conv2d(32, 32, kernel_size=(1, 1), stride=(1, 1), bias=False)
  (0_batch): BatchNorm2d(32, eps=1e-05, momentum=0.1, affine=False, track_running_stats=True)
  (0_relu): Relu()
) <class 'vega.modules.operators.conv.SeparatedConv'>
pytorch_fn.py: Module: forward(): call()
pytorch_fn.py: Module: call():
mix_ops.py: MixedOp: call(): for idx, op in enumerate(self.children()):  5 SeparatedConv(
  (0_conv1): Conv2d(32, 32, kernel_size=(5, 5), stride=(2, 2), padding=(2, 2), groups=32, bias=False)
  (0_conv2): Conv2d(32, 32, kernel_size=(1, 1), stride=(1, 1), bias=False)
  (0_batch): BatchNorm2d(32, eps=1e-05, momentum=0.1, affine=False, track_running_stats=True)
  (0_relu): Relu()
) <class 'vega.modules.operators.conv.SeparatedConv'>
pytorch_fn.py: Module: forward(): call()
pytorch_fn.py: Module: call():
mix_ops.py: MixedOp: call(): for idx, op in enumerate(self.children()):  6 DilConv(
  (relu): Relu()
  (conv1): Conv2d(32, 32, kernel_size=(3, 3), stride=(2, 2), padding=(2, 2), dilation=(2, 2), groups=32, bias=False)
  (conv2): Conv2d(32, 32, kernel_size=(1, 1), stride=(1, 1), bias=False)
  (batch): BatchNorm2d(32, eps=1e-05, momentum=0.1, affine=False, track_running_stats=True)
) <class 'vega.modules.operators.conv.DilConv'>
pytorch_fn.py: Module: forward(): call()
pytorch_fn.py: Module: call():
mix_ops.py: MixedOp: call(): for idx, op in enumerate(self.children()):  7 DilConv(
  (relu): Relu()
  (conv1): Conv2d(32, 32, kernel_size=(5, 5), stride=(2, 2), padding=(4, 4), dilation=(2, 2), groups=32, bias=False)
  (conv2): Conv2d(32, 32, kernel_size=(1, 1), stride=(1, 1), bias=False)
  (batch): BatchNorm2d(32, eps=1e-05, momentum=0.1, affine=False, track_running_stats=True)
) <class 'vega.modules.operators.conv.DilConv'>
pytorch_fn.py: Module: forward(): call()
pytorch_fn.py: Module: call():
cell.py: Cell: call(): j, inp:  2 2
cell.py: Cell: call(): op:  MixedOp(
  (none): Zero()
  (max_pool_3x3): Seq(
    (0): MaxPool2d(kernel_size=3, stride=1, padding=1, dilation=1, ceil_mode=False)
    (1): BatchNorm2d(32, eps=1e-05, momentum=0.1, affine=False, track_running_stats=True)
  )
  (avg_pool_3x3): Seq(
    (0): AvgPool2d(kernel_size=3, stride=1, padding=1)
    (1): BatchNorm2d(32, eps=1e-05, momentum=0.1, affine=False, track_running_stats=True)
  )
  (skip_connect): Identity()
  (sep_conv_3x3): SeparatedConv(
    (0_conv1): Conv2d(32, 32, kernel_size=(3, 3), stride=(1, 1), padding=(1, 1), groups=32, bias=False)
    (0_conv2): Conv2d(32, 32, kernel_size=(1, 1), stride=(1, 1), bias=False)
    (0_batch): BatchNorm2d(32, eps=1e-05, momentum=0.1, affine=False, track_running_stats=True)
    (0_relu): Relu()
  )
  (sep_conv_5x5): SeparatedConv(
    (0_conv1): Conv2d(32, 32, kernel_size=(5, 5), stride=(1, 1), padding=(2, 2), groups=32, bias=False)
    (0_conv2): Conv2d(32, 32, kernel_size=(1, 1), stride=(1, 1), bias=False)
    (0_batch): BatchNorm2d(32, eps=1e-05, momentum=0.1, affine=False, track_running_stats=True)
    (0_relu): Relu()
  )
  (dil_conv_3x3): DilConv(
    (relu): Relu()
    (conv1): Conv2d(32, 32, kernel_size=(3, 3), stride=(1, 1), padding=(2, 2), dilation=(2, 2), groups=32, bias=False)
    (conv2): Conv2d(32, 32, kernel_size=(1, 1), stride=(1, 1), bias=False)
    (batch): BatchNorm2d(32, eps=1e-05, momentum=0.1, affine=False, track_running_stats=True)
  )
  (dil_conv_5x5): DilConv(
    (relu): Relu()
    (conv1): Conv2d(32, 32, kernel_size=(5, 5), stride=(1, 1), padding=(4, 4), dilation=(2, 2), groups=32, bias=False)
    (conv2): Conv2d(32, 32, kernel_size=(1, 1), stride=(1, 1), bias=False)
    (batch): BatchNorm2d(32, eps=1e-05, momentum=0.1, affine=False, track_running_stats=True)
  )
)
pytorch_fn.py: Module: forward(): call()
mix_ops.py: MixedOp: call(): for idx, op in enumerate(self.children()):  0 Zero() <class 'vega.modules.operators.functions.pytorch_fn.Zero'>
mix_ops.py: MixedOp: call(): for idx, op in enumerate(self.children()):  1 Seq(
  (0): MaxPool2d(kernel_size=3, stride=1, padding=1, dilation=1, ceil_mode=False)
  (1): BatchNorm2d(32, eps=1e-05, momentum=0.1, affine=False, track_running_stats=True)
) <class 'vega.modules.operators.conv.Seq'>
pytorch_fn.py: Module: forward(): call()
pytorch_fn.py: Module: call():
mix_ops.py: MixedOp: call(): for idx, op in enumerate(self.children()):  2 Seq(
  (0): AvgPool2d(kernel_size=3, stride=1, padding=1)
  (1): BatchNorm2d(32, eps=1e-05, momentum=0.1, affine=False, track_running_stats=True)
) <class 'vega.modules.operators.conv.Seq'>
pytorch_fn.py: Module: forward(): call()
pytorch_fn.py: Module: call():
mix_ops.py: MixedOp: call(): for idx, op in enumerate(self.children()):  3 Identity() <class 'vega.modules.operators.functions.pytorch_fn.Identity'>
mix_ops.py: MixedOp: call(): for idx, op in enumerate(self.children()):  4 SeparatedConv(
  (0_conv1): Conv2d(32, 32, kernel_size=(3, 3), stride=(1, 1), padding=(1, 1), groups=32, bias=False)
  (0_conv2): Conv2d(32, 32, kernel_size=(1, 1), stride=(1, 1), bias=False)
  (0_batch): BatchNorm2d(32, eps=1e-05, momentum=0.1, affine=False, track_running_stats=True)
  (0_relu): Relu()
) <class 'vega.modules.operators.conv.SeparatedConv'>
pytorch_fn.py: Module: forward(): call()
pytorch_fn.py: Module: call():
mix_ops.py: MixedOp: call(): for idx, op in enumerate(self.children()):  5 SeparatedConv(
  (0_conv1): Conv2d(32, 32, kernel_size=(5, 5), stride=(1, 1), padding=(2, 2), groups=32, bias=False)
  (0_conv2): Conv2d(32, 32, kernel_size=(1, 1), stride=(1, 1), bias=False)
  (0_batch): BatchNorm2d(32, eps=1e-05, momentum=0.1, affine=False, track_running_stats=True)
  (0_relu): Relu()
) <class 'vega.modules.operators.conv.SeparatedConv'>
pytorch_fn.py: Module: forward(): call()
pytorch_fn.py: Module: call():
mix_ops.py: MixedOp: call(): for idx, op in enumerate(self.children()):  6 DilConv(
  (relu): Relu()
  (conv1): Conv2d(32, 32, kernel_size=(3, 3), stride=(1, 1), padding=(2, 2), dilation=(2, 2), groups=32, bias=False)
  (conv2): Conv2d(32, 32, kernel_size=(1, 1), stride=(1, 1), bias=False)
  (batch): BatchNorm2d(32, eps=1e-05, momentum=0.1, affine=False, track_running_stats=True)
) <class 'vega.modules.operators.conv.DilConv'>
pytorch_fn.py: Module: forward(): call()
pytorch_fn.py: Module: call():
mix_ops.py: MixedOp: call(): for idx, op in enumerate(self.children()):  7 DilConv(
  (relu): Relu()
  (conv1): Conv2d(32, 32, kernel_size=(5, 5), stride=(1, 1), padding=(4, 4), dilation=(2, 2), groups=32, bias=False)
  (conv2): Conv2d(32, 32, kernel_size=(1, 1), stride=(1, 1), bias=False)
  (batch): BatchNorm2d(32, eps=1e-05, momentum=0.1, affine=False, track_running_stats=True)
) <class 'vega.modules.operators.conv.DilConv'>
pytorch_fn.py: Module: forward(): call()
pytorch_fn.py: Module: call():
cell.py: Cell: call(): j, inp:  0 0
cell.py: Cell: call(): op:  MixedOp(
  (none): Zero()
  (max_pool_3x3): Seq(
    (0): MaxPool2d(kernel_size=3, stride=2, padding=1, dilation=1, ceil_mode=False)
    (1): BatchNorm2d(32, eps=1e-05, momentum=0.1, affine=False, track_running_stats=True)
  )
  (avg_pool_3x3): Seq(
    (0): AvgPool2d(kernel_size=3, stride=2, padding=1)
    (1): BatchNorm2d(32, eps=1e-05, momentum=0.1, affine=False, track_running_stats=True)
  )
  (skip_connect): FactorizedReduce(
    (relu): Relu()
    (conv_1): Conv2d(32, 16, kernel_size=(1, 1), stride=(2, 2), bias=False)
    (conv_2): Conv2d(32, 16, kernel_size=(1, 1), stride=(2, 2), bias=False)
    (bn): BatchNorm2d(32, eps=1e-05, momentum=0.1, affine=False, track_running_stats=True)
  )
  (sep_conv_3x3): SeparatedConv(
    (0_conv1): Conv2d(32, 32, kernel_size=(3, 3), stride=(2, 2), padding=(1, 1), groups=32, bias=False)
    (0_conv2): Conv2d(32, 32, kernel_size=(1, 1), stride=(1, 1), bias=False)
    (0_batch): BatchNorm2d(32, eps=1e-05, momentum=0.1, affine=False, track_running_stats=True)
    (0_relu): Relu()
  )
  (sep_conv_5x5): SeparatedConv(
    (0_conv1): Conv2d(32, 32, kernel_size=(5, 5), stride=(2, 2), padding=(2, 2), groups=32, bias=False)
    (0_conv2): Conv2d(32, 32, kernel_size=(1, 1), stride=(1, 1), bias=False)
    (0_batch): BatchNorm2d(32, eps=1e-05, momentum=0.1, affine=False, track_running_stats=True)
    (0_relu): Relu()
  )
  (dil_conv_3x3): DilConv(
    (relu): Relu()
    (conv1): Conv2d(32, 32, kernel_size=(3, 3), stride=(2, 2), padding=(2, 2), dilation=(2, 2), groups=32, bias=False)
    (conv2): Conv2d(32, 32, kernel_size=(1, 1), stride=(1, 1), bias=False)
    (batch): BatchNorm2d(32, eps=1e-05, momentum=0.1, affine=False, track_running_stats=True)
  )
  (dil_conv_5x5): DilConv(
    (relu): Relu()
    (conv1): Conv2d(32, 32, kernel_size=(5, 5), stride=(2, 2), padding=(4, 4), dilation=(2, 2), groups=32, bias=False)
    (conv2): Conv2d(32, 32, kernel_size=(1, 1), stride=(1, 1), bias=False)
    (batch): BatchNorm2d(32, eps=1e-05, momentum=0.1, affine=False, track_running_stats=True)
  )
)
pytorch_fn.py: Module: forward(): call()
mix_ops.py: MixedOp: call(): for idx, op in enumerate(self.children()):  0 Zero() <class 'vega.modules.operators.functions.pytorch_fn.Zero'>
mix_ops.py: MixedOp: call(): for idx, op in enumerate(self.children()):  1 Seq(
  (0): MaxPool2d(kernel_size=3, stride=2, padding=1, dilation=1, ceil_mode=False)
  (1): BatchNorm2d(32, eps=1e-05, momentum=0.1, affine=False, track_running_stats=True)
) <class 'vega.modules.operators.conv.Seq'>
pytorch_fn.py: Module: forward(): call()
pytorch_fn.py: Module: call():
mix_ops.py: MixedOp: call(): for idx, op in enumerate(self.children()):  2 Seq(
  (0): AvgPool2d(kernel_size=3, stride=2, padding=1)
  (1): BatchNorm2d(32, eps=1e-05, momentum=0.1, affine=False, track_running_stats=True)
) <class 'vega.modules.operators.conv.Seq'>
pytorch_fn.py: Module: forward(): call()
pytorch_fn.py: Module: call():
mix_ops.py: MixedOp: call(): for idx, op in enumerate(self.children()):  3 FactorizedReduce(
  (relu): Relu()
  (conv_1): Conv2d(32, 16, kernel_size=(1, 1), stride=(2, 2), bias=False)
  (conv_2): Conv2d(32, 16, kernel_size=(1, 1), stride=(2, 2), bias=False)
  (bn): BatchNorm2d(32, eps=1e-05, momentum=0.1, affine=False, track_running_stats=True)
) <class 'vega.modules.operators.conv.FactorizedReduce'>
pytorch_fn.py: Module: forward(): call()
mix_ops.py: MixedOp: call(): for idx, op in enumerate(self.children()):  4 SeparatedConv(
  (0_conv1): Conv2d(32, 32, kernel_size=(3, 3), stride=(2, 2), padding=(1, 1), groups=32, bias=False)
  (0_conv2): Conv2d(32, 32, kernel_size=(1, 1), stride=(1, 1), bias=False)
  (0_batch): BatchNorm2d(32, eps=1e-05, momentum=0.1, affine=False, track_running_stats=True)
  (0_relu): Relu()
) <class 'vega.modules.operators.conv.SeparatedConv'>
pytorch_fn.py: Module: forward(): call()
pytorch_fn.py: Module: call():
mix_ops.py: MixedOp: call(): for idx, op in enumerate(self.children()):  5 SeparatedConv(
  (0_conv1): Conv2d(32, 32, kernel_size=(5, 5), stride=(2, 2), padding=(2, 2), groups=32, bias=False)
  (0_conv2): Conv2d(32, 32, kernel_size=(1, 1), stride=(1, 1), bias=False)
  (0_batch): BatchNorm2d(32, eps=1e-05, momentum=0.1, affine=False, track_running_stats=True)
  (0_relu): Relu()
) <class 'vega.modules.operators.conv.SeparatedConv'>
pytorch_fn.py: Module: forward(): call()
pytorch_fn.py: Module: call():
mix_ops.py: MixedOp: call(): for idx, op in enumerate(self.children()):  6 DilConv(
  (relu): Relu()
  (conv1): Conv2d(32, 32, kernel_size=(3, 3), stride=(2, 2), padding=(2, 2), dilation=(2, 2), groups=32, bias=False)
  (conv2): Conv2d(32, 32, kernel_size=(1, 1), stride=(1, 1), bias=False)
  (batch): BatchNorm2d(32, eps=1e-05, momentum=0.1, affine=False, track_running_stats=True)
) <class 'vega.modules.operators.conv.DilConv'>
pytorch_fn.py: Module: forward(): call()
pytorch_fn.py: Module: call():
mix_ops.py: MixedOp: call(): for idx, op in enumerate(self.children()):  7 DilConv(
  (relu): Relu()
  (conv1): Conv2d(32, 32, kernel_size=(5, 5), stride=(2, 2), padding=(4, 4), dilation=(2, 2), groups=32, bias=False)
  (conv2): Conv2d(32, 32, kernel_size=(1, 1), stride=(1, 1), bias=False)
  (batch): BatchNorm2d(32, eps=1e-05, momentum=0.1, affine=False, track_running_stats=True)
) <class 'vega.modules.operators.conv.DilConv'>
pytorch_fn.py: Module: forward(): call()
pytorch_fn.py: Module: call():
cell.py: Cell: call(): j, inp:  1 1
cell.py: Cell: call(): op:  MixedOp(
  (none): Zero()
  (max_pool_3x3): Seq(
    (0): MaxPool2d(kernel_size=3, stride=2, padding=1, dilation=1, ceil_mode=False)
    (1): BatchNorm2d(32, eps=1e-05, momentum=0.1, affine=False, track_running_stats=True)
  )
  (avg_pool_3x3): Seq(
    (0): AvgPool2d(kernel_size=3, stride=2, padding=1)
    (1): BatchNorm2d(32, eps=1e-05, momentum=0.1, affine=False, track_running_stats=True)
  )
  (skip_connect): FactorizedReduce(
    (relu): Relu()
    (conv_1): Conv2d(32, 16, kernel_size=(1, 1), stride=(2, 2), bias=False)
    (conv_2): Conv2d(32, 16, kernel_size=(1, 1), stride=(2, 2), bias=False)
    (bn): BatchNorm2d(32, eps=1e-05, momentum=0.1, affine=False, track_running_stats=True)
  )
  (sep_conv_3x3): SeparatedConv(
    (0_conv1): Conv2d(32, 32, kernel_size=(3, 3), stride=(2, 2), padding=(1, 1), groups=32, bias=False)
    (0_conv2): Conv2d(32, 32, kernel_size=(1, 1), stride=(1, 1), bias=False)
    (0_batch): BatchNorm2d(32, eps=1e-05, momentum=0.1, affine=False, track_running_stats=True)
    (0_relu): Relu()
  )
  (sep_conv_5x5): SeparatedConv(
    (0_conv1): Conv2d(32, 32, kernel_size=(5, 5), stride=(2, 2), padding=(2, 2), groups=32, bias=False)
    (0_conv2): Conv2d(32, 32, kernel_size=(1, 1), stride=(1, 1), bias=False)
    (0_batch): BatchNorm2d(32, eps=1e-05, momentum=0.1, affine=False, track_running_stats=True)
    (0_relu): Relu()
  )
  (dil_conv_3x3): DilConv(
    (relu): Relu()
    (conv1): Conv2d(32, 32, kernel_size=(3, 3), stride=(2, 2), padding=(2, 2), dilation=(2, 2), groups=32, bias=False)
    (conv2): Conv2d(32, 32, kernel_size=(1, 1), stride=(1, 1), bias=False)
    (batch): BatchNorm2d(32, eps=1e-05, momentum=0.1, affine=False, track_running_stats=True)
  )
  (dil_conv_5x5): DilConv(
    (relu): Relu()
    (conv1): Conv2d(32, 32, kernel_size=(5, 5), stride=(2, 2), padding=(4, 4), dilation=(2, 2), groups=32, bias=False)
    (conv2): Conv2d(32, 32, kernel_size=(1, 1), stride=(1, 1), bias=False)
    (batch): BatchNorm2d(32, eps=1e-05, momentum=0.1, affine=False, track_running_stats=True)
  )
)
pytorch_fn.py: Module: forward(): call()
mix_ops.py: MixedOp: call(): for idx, op in enumerate(self.children()):  0 Zero() <class 'vega.modules.operators.functions.pytorch_fn.Zero'>
mix_ops.py: MixedOp: call(): for idx, op in enumerate(self.children()):  1 Seq(
  (0): MaxPool2d(kernel_size=3, stride=2, padding=1, dilation=1, ceil_mode=False)
  (1): BatchNorm2d(32, eps=1e-05, momentum=0.1, affine=False, track_running_stats=True)
) <class 'vega.modules.operators.conv.Seq'>
pytorch_fn.py: Module: forward(): call()
pytorch_fn.py: Module: call():
mix_ops.py: MixedOp: call(): for idx, op in enumerate(self.children()):  2 Seq(
  (0): AvgPool2d(kernel_size=3, stride=2, padding=1)
  (1): BatchNorm2d(32, eps=1e-05, momentum=0.1, affine=False, track_running_stats=True)
) <class 'vega.modules.operators.conv.Seq'>
pytorch_fn.py: Module: forward(): call()
pytorch_fn.py: Module: call():
mix_ops.py: MixedOp: call(): for idx, op in enumerate(self.children()):  3 FactorizedReduce(
  (relu): Relu()
  (conv_1): Conv2d(32, 16, kernel_size=(1, 1), stride=(2, 2), bias=False)
  (conv_2): Conv2d(32, 16, kernel_size=(1, 1), stride=(2, 2), bias=False)
  (bn): BatchNorm2d(32, eps=1e-05, momentum=0.1, affine=False, track_running_stats=True)
) <class 'vega.modules.operators.conv.FactorizedReduce'>
pytorch_fn.py: Module: forward(): call()
mix_ops.py: MixedOp: call(): for idx, op in enumerate(self.children()):  4 SeparatedConv(
  (0_conv1): Conv2d(32, 32, kernel_size=(3, 3), stride=(2, 2), padding=(1, 1), groups=32, bias=False)
  (0_conv2): Conv2d(32, 32, kernel_size=(1, 1), stride=(1, 1), bias=False)
  (0_batch): BatchNorm2d(32, eps=1e-05, momentum=0.1, affine=False, track_running_stats=True)
  (0_relu): Relu()
) <class 'vega.modules.operators.conv.SeparatedConv'>
pytorch_fn.py: Module: forward(): call()
pytorch_fn.py: Module: call():
mix_ops.py: MixedOp: call(): for idx, op in enumerate(self.children()):  5 SeparatedConv(
  (0_conv1): Conv2d(32, 32, kernel_size=(5, 5), stride=(2, 2), padding=(2, 2), groups=32, bias=False)
  (0_conv2): Conv2d(32, 32, kernel_size=(1, 1), stride=(1, 1), bias=False)
  (0_batch): BatchNorm2d(32, eps=1e-05, momentum=0.1, affine=False, track_running_stats=True)
  (0_relu): Relu()
) <class 'vega.modules.operators.conv.SeparatedConv'>
pytorch_fn.py: Module: forward(): call()
pytorch_fn.py: Module: call():
mix_ops.py: MixedOp: call(): for idx, op in enumerate(self.children()):  6 DilConv(
  (relu): Relu()
  (conv1): Conv2d(32, 32, kernel_size=(3, 3), stride=(2, 2), padding=(2, 2), dilation=(2, 2), groups=32, bias=False)
  (conv2): Conv2d(32, 32, kernel_size=(1, 1), stride=(1, 1), bias=False)
  (batch): BatchNorm2d(32, eps=1e-05, momentum=0.1, affine=False, track_running_stats=True)
) <class 'vega.modules.operators.conv.DilConv'>
pytorch_fn.py: Module: forward(): call()
pytorch_fn.py: Module: call():
mix_ops.py: MixedOp: call(): for idx, op in enumerate(self.children()):  7 DilConv(
  (relu): Relu()
  (conv1): Conv2d(32, 32, kernel_size=(5, 5), stride=(2, 2), padding=(4, 4), dilation=(2, 2), groups=32, bias=False)
  (conv2): Conv2d(32, 32, kernel_size=(1, 1), stride=(1, 1), bias=False)
  (batch): BatchNorm2d(32, eps=1e-05, momentum=0.1, affine=False, track_running_stats=True)
) <class 'vega.modules.operators.conv.DilConv'>
pytorch_fn.py: Module: forward(): call()
pytorch_fn.py: Module: call():
cell.py: Cell: call(): j, inp:  2 2
cell.py: Cell: call(): op:  MixedOp(
  (none): Zero()
  (max_pool_3x3): Seq(
    (0): MaxPool2d(kernel_size=3, stride=1, padding=1, dilation=1, ceil_mode=False)
    (1): BatchNorm2d(32, eps=1e-05, momentum=0.1, affine=False, track_running_stats=True)
  )
  (avg_pool_3x3): Seq(
    (0): AvgPool2d(kernel_size=3, stride=1, padding=1)
    (1): BatchNorm2d(32, eps=1e-05, momentum=0.1, affine=False, track_running_stats=True)
  )
  (skip_connect): Identity()
  (sep_conv_3x3): SeparatedConv(
    (0_conv1): Conv2d(32, 32, kernel_size=(3, 3), stride=(1, 1), padding=(1, 1), groups=32, bias=False)
    (0_conv2): Conv2d(32, 32, kernel_size=(1, 1), stride=(1, 1), bias=False)
    (0_batch): BatchNorm2d(32, eps=1e-05, momentum=0.1, affine=False, track_running_stats=True)
    (0_relu): Relu()
  )
  (sep_conv_5x5): SeparatedConv(
    (0_conv1): Conv2d(32, 32, kernel_size=(5, 5), stride=(1, 1), padding=(2, 2), groups=32, bias=False)
    (0_conv2): Conv2d(32, 32, kernel_size=(1, 1), stride=(1, 1), bias=False)
    (0_batch): BatchNorm2d(32, eps=1e-05, momentum=0.1, affine=False, track_running_stats=True)
    (0_relu): Relu()
  )
  (dil_conv_3x3): DilConv(
    (relu): Relu()
    (conv1): Conv2d(32, 32, kernel_size=(3, 3), stride=(1, 1), padding=(2, 2), dilation=(2, 2), groups=32, bias=False)
    (conv2): Conv2d(32, 32, kernel_size=(1, 1), stride=(1, 1), bias=False)
    (batch): BatchNorm2d(32, eps=1e-05, momentum=0.1, affine=False, track_running_stats=True)
  )
  (dil_conv_5x5): DilConv(
    (relu): Relu()
    (conv1): Conv2d(32, 32, kernel_size=(5, 5), stride=(1, 1), padding=(4, 4), dilation=(2, 2), groups=32, bias=False)
    (conv2): Conv2d(32, 32, kernel_size=(1, 1), stride=(1, 1), bias=False)
    (batch): BatchNorm2d(32, eps=1e-05, momentum=0.1, affine=False, track_running_stats=True)
  )
)
pytorch_fn.py: Module: forward(): call()
mix_ops.py: MixedOp: call(): for idx, op in enumerate(self.children()):  0 Zero() <class 'vega.modules.operators.functions.pytorch_fn.Zero'>
mix_ops.py: MixedOp: call(): for idx, op in enumerate(self.children()):  1 Seq(
  (0): MaxPool2d(kernel_size=3, stride=1, padding=1, dilation=1, ceil_mode=False)
  (1): BatchNorm2d(32, eps=1e-05, momentum=0.1, affine=False, track_running_stats=True)
) <class 'vega.modules.operators.conv.Seq'>
pytorch_fn.py: Module: forward(): call()
pytorch_fn.py: Module: call():
mix_ops.py: MixedOp: call(): for idx, op in enumerate(self.children()):  2 Seq(
  (0): AvgPool2d(kernel_size=3, stride=1, padding=1)
  (1): BatchNorm2d(32, eps=1e-05, momentum=0.1, affine=False, track_running_stats=True)
) <class 'vega.modules.operators.conv.Seq'>
pytorch_fn.py: Module: forward(): call()
pytorch_fn.py: Module: call():
mix_ops.py: MixedOp: call(): for idx, op in enumerate(self.children()):  3 Identity() <class 'vega.modules.operators.functions.pytorch_fn.Identity'>
mix_ops.py: MixedOp: call(): for idx, op in enumerate(self.children()):  4 SeparatedConv(
  (0_conv1): Conv2d(32, 32, kernel_size=(3, 3), stride=(1, 1), padding=(1, 1), groups=32, bias=False)
  (0_conv2): Conv2d(32, 32, kernel_size=(1, 1), stride=(1, 1), bias=False)
  (0_batch): BatchNorm2d(32, eps=1e-05, momentum=0.1, affine=False, track_running_stats=True)
  (0_relu): Relu()
) <class 'vega.modules.operators.conv.SeparatedConv'>
pytorch_fn.py: Module: forward(): call()
pytorch_fn.py: Module: call():
mix_ops.py: MixedOp: call(): for idx, op in enumerate(self.children()):  5 SeparatedConv(
  (0_conv1): Conv2d(32, 32, kernel_size=(5, 5), stride=(1, 1), padding=(2, 2), groups=32, bias=False)
  (0_conv2): Conv2d(32, 32, kernel_size=(1, 1), stride=(1, 1), bias=False)
  (0_batch): BatchNorm2d(32, eps=1e-05, momentum=0.1, affine=False, track_running_stats=True)
  (0_relu): Relu()
) <class 'vega.modules.operators.conv.SeparatedConv'>
pytorch_fn.py: Module: forward(): call()
pytorch_fn.py: Module: call():
mix_ops.py: MixedOp: call(): for idx, op in enumerate(self.children()):  6 DilConv(
  (relu): Relu()
  (conv1): Conv2d(32, 32, kernel_size=(3, 3), stride=(1, 1), padding=(2, 2), dilation=(2, 2), groups=32, bias=False)
  (conv2): Conv2d(32, 32, kernel_size=(1, 1), stride=(1, 1), bias=False)
  (batch): BatchNorm2d(32, eps=1e-05, momentum=0.1, affine=False, track_running_stats=True)
) <class 'vega.modules.operators.conv.DilConv'>
pytorch_fn.py: Module: forward(): call()
pytorch_fn.py: Module: call():
mix_ops.py: MixedOp: call(): for idx, op in enumerate(self.children()):  7 DilConv(
  (relu): Relu()
  (conv1): Conv2d(32, 32, kernel_size=(5, 5), stride=(1, 1), padding=(4, 4), dilation=(2, 2), groups=32, bias=False)
  (conv2): Conv2d(32, 32, kernel_size=(1, 1), stride=(1, 1), bias=False)
  (batch): BatchNorm2d(32, eps=1e-05, momentum=0.1, affine=False, track_running_stats=True)
) <class 'vega.modules.operators.conv.DilConv'>
pytorch_fn.py: Module: forward(): call()
pytorch_fn.py: Module: call():
cell.py: Cell: call(): j, inp:  3 3
cell.py: Cell: call(): op:  MixedOp(
  (none): Zero()
  (max_pool_3x3): Seq(
    (0): MaxPool2d(kernel_size=3, stride=1, padding=1, dilation=1, ceil_mode=False)
    (1): BatchNorm2d(32, eps=1e-05, momentum=0.1, affine=False, track_running_stats=True)
  )
  (avg_pool_3x3): Seq(
    (0): AvgPool2d(kernel_size=3, stride=1, padding=1)
    (1): BatchNorm2d(32, eps=1e-05, momentum=0.1, affine=False, track_running_stats=True)
  )
  (skip_connect): Identity()
  (sep_conv_3x3): SeparatedConv(
    (0_conv1): Conv2d(32, 32, kernel_size=(3, 3), stride=(1, 1), padding=(1, 1), groups=32, bias=False)
    (0_conv2): Conv2d(32, 32, kernel_size=(1, 1), stride=(1, 1), bias=False)
    (0_batch): BatchNorm2d(32, eps=1e-05, momentum=0.1, affine=False, track_running_stats=True)
    (0_relu): Relu()
  )
  (sep_conv_5x5): SeparatedConv(
    (0_conv1): Conv2d(32, 32, kernel_size=(5, 5), stride=(1, 1), padding=(2, 2), groups=32, bias=False)
    (0_conv2): Conv2d(32, 32, kernel_size=(1, 1), stride=(1, 1), bias=False)
    (0_batch): BatchNorm2d(32, eps=1e-05, momentum=0.1, affine=False, track_running_stats=True)
    (0_relu): Relu()
  )
  (dil_conv_3x3): DilConv(
    (relu): Relu()
    (conv1): Conv2d(32, 32, kernel_size=(3, 3), stride=(1, 1), padding=(2, 2), dilation=(2, 2), groups=32, bias=False)
    (conv2): Conv2d(32, 32, kernel_size=(1, 1), stride=(1, 1), bias=False)
    (batch): BatchNorm2d(32, eps=1e-05, momentum=0.1, affine=False, track_running_stats=True)
  )
  (dil_conv_5x5): DilConv(
    (relu): Relu()
    (conv1): Conv2d(32, 32, kernel_size=(5, 5), stride=(1, 1), padding=(4, 4), dilation=(2, 2), groups=32, bias=False)
    (conv2): Conv2d(32, 32, kernel_size=(1, 1), stride=(1, 1), bias=False)
    (batch): BatchNorm2d(32, eps=1e-05, momentum=0.1, affine=False, track_running_stats=True)
  )
)
pytorch_fn.py: Module: forward(): call()
mix_ops.py: MixedOp: call(): for idx, op in enumerate(self.children()):  0 Zero() <class 'vega.modules.operators.functions.pytorch_fn.Zero'>
mix_ops.py: MixedOp: call(): for idx, op in enumerate(self.children()):  1 Seq(
  (0): MaxPool2d(kernel_size=3, stride=1, padding=1, dilation=1, ceil_mode=False)
  (1): BatchNorm2d(32, eps=1e-05, momentum=0.1, affine=False, track_running_stats=True)
) <class 'vega.modules.operators.conv.Seq'>
pytorch_fn.py: Module: forward(): call()
pytorch_fn.py: Module: call():
mix_ops.py: MixedOp: call(): for idx, op in enumerate(self.children()):  2 Seq(
  (0): AvgPool2d(kernel_size=3, stride=1, padding=1)
  (1): BatchNorm2d(32, eps=1e-05, momentum=0.1, affine=False, track_running_stats=True)
) <class 'vega.modules.operators.conv.Seq'>
pytorch_fn.py: Module: forward(): call()
pytorch_fn.py: Module: call():
mix_ops.py: MixedOp: call(): for idx, op in enumerate(self.children()):  3 Identity() <class 'vega.modules.operators.functions.pytorch_fn.Identity'>
mix_ops.py: MixedOp: call(): for idx, op in enumerate(self.children()):  4 SeparatedConv(
  (0_conv1): Conv2d(32, 32, kernel_size=(3, 3), stride=(1, 1), padding=(1, 1), groups=32, bias=False)
  (0_conv2): Conv2d(32, 32, kernel_size=(1, 1), stride=(1, 1), bias=False)
  (0_batch): BatchNorm2d(32, eps=1e-05, momentum=0.1, affine=False, track_running_stats=True)
  (0_relu): Relu()
) <class 'vega.modules.operators.conv.SeparatedConv'>
pytorch_fn.py: Module: forward(): call()
pytorch_fn.py: Module: call():
mix_ops.py: MixedOp: call(): for idx, op in enumerate(self.children()):  5 SeparatedConv(
  (0_conv1): Conv2d(32, 32, kernel_size=(5, 5), stride=(1, 1), padding=(2, 2), groups=32, bias=False)
  (0_conv2): Conv2d(32, 32, kernel_size=(1, 1), stride=(1, 1), bias=False)
  (0_batch): BatchNorm2d(32, eps=1e-05, momentum=0.1, affine=False, track_running_stats=True)
  (0_relu): Relu()
) <class 'vega.modules.operators.conv.SeparatedConv'>
pytorch_fn.py: Module: forward(): call()
pytorch_fn.py: Module: call():
mix_ops.py: MixedOp: call(): for idx, op in enumerate(self.children()):  6 DilConv(
  (relu): Relu()
  (conv1): Conv2d(32, 32, kernel_size=(3, 3), stride=(1, 1), padding=(2, 2), dilation=(2, 2), groups=32, bias=False)
  (conv2): Conv2d(32, 32, kernel_size=(1, 1), stride=(1, 1), bias=False)
  (batch): BatchNorm2d(32, eps=1e-05, momentum=0.1, affine=False, track_running_stats=True)
) <class 'vega.modules.operators.conv.DilConv'>
pytorch_fn.py: Module: forward(): call()
pytorch_fn.py: Module: call():
mix_ops.py: MixedOp: call(): for idx, op in enumerate(self.children()):  7 DilConv(
  (relu): Relu()
  (conv1): Conv2d(32, 32, kernel_size=(5, 5), stride=(1, 1), padding=(4, 4), dilation=(2, 2), groups=32, bias=False)
  (conv2): Conv2d(32, 32, kernel_size=(1, 1), stride=(1, 1), bias=False)
  (batch): BatchNorm2d(32, eps=1e-05, momentum=0.1, affine=False, track_running_stats=True)
) <class 'vega.modules.operators.conv.DilConv'>
pytorch_fn.py: Module: forward(): call()
pytorch_fn.py: Module: call():
cell.py: Cell: call(): j, inp:  0 0
cell.py: Cell: call(): op:  MixedOp(
  (none): Zero()
  (max_pool_3x3): Seq(
    (0): MaxPool2d(kernel_size=3, stride=2, padding=1, dilation=1, ceil_mode=False)
    (1): BatchNorm2d(32, eps=1e-05, momentum=0.1, affine=False, track_running_stats=True)
  )
  (avg_pool_3x3): Seq(
    (0): AvgPool2d(kernel_size=3, stride=2, padding=1)
    (1): BatchNorm2d(32, eps=1e-05, momentum=0.1, affine=False, track_running_stats=True)
  )
  (skip_connect): FactorizedReduce(
    (relu): Relu()
    (conv_1): Conv2d(32, 16, kernel_size=(1, 1), stride=(2, 2), bias=False)
    (conv_2): Conv2d(32, 16, kernel_size=(1, 1), stride=(2, 2), bias=False)
    (bn): BatchNorm2d(32, eps=1e-05, momentum=0.1, affine=False, track_running_stats=True)
  )
  (sep_conv_3x3): SeparatedConv(
    (0_conv1): Conv2d(32, 32, kernel_size=(3, 3), stride=(2, 2), padding=(1, 1), groups=32, bias=False)
    (0_conv2): Conv2d(32, 32, kernel_size=(1, 1), stride=(1, 1), bias=False)
    (0_batch): BatchNorm2d(32, eps=1e-05, momentum=0.1, affine=False, track_running_stats=True)
    (0_relu): Relu()
  )
  (sep_conv_5x5): SeparatedConv(
    (0_conv1): Conv2d(32, 32, kernel_size=(5, 5), stride=(2, 2), padding=(2, 2), groups=32, bias=False)
    (0_conv2): Conv2d(32, 32, kernel_size=(1, 1), stride=(1, 1), bias=False)
    (0_batch): BatchNorm2d(32, eps=1e-05, momentum=0.1, affine=False, track_running_stats=True)
    (0_relu): Relu()
  )
  (dil_conv_3x3): DilConv(
    (relu): Relu()
    (conv1): Conv2d(32, 32, kernel_size=(3, 3), stride=(2, 2), padding=(2, 2), dilation=(2, 2), groups=32, bias=False)
    (conv2): Conv2d(32, 32, kernel_size=(1, 1), stride=(1, 1), bias=False)
    (batch): BatchNorm2d(32, eps=1e-05, momentum=0.1, affine=False, track_running_stats=True)
  )
  (dil_conv_5x5): DilConv(
    (relu): Relu()
    (conv1): Conv2d(32, 32, kernel_size=(5, 5), stride=(2, 2), padding=(4, 4), dilation=(2, 2), groups=32, bias=False)
    (conv2): Conv2d(32, 32, kernel_size=(1, 1), stride=(1, 1), bias=False)
    (batch): BatchNorm2d(32, eps=1e-05, momentum=0.1, affine=False, track_running_stats=True)
  )
)
pytorch_fn.py: Module: forward(): call()
mix_ops.py: MixedOp: call(): for idx, op in enumerate(self.children()):  0 Zero() <class 'vega.modules.operators.functions.pytorch_fn.Zero'>
mix_ops.py: MixedOp: call(): for idx, op in enumerate(self.children()):  1 Seq(
  (0): MaxPool2d(kernel_size=3, stride=2, padding=1, dilation=1, ceil_mode=False)
  (1): BatchNorm2d(32, eps=1e-05, momentum=0.1, affine=False, track_running_stats=True)
) <class 'vega.modules.operators.conv.Seq'>
pytorch_fn.py: Module: forward(): call()
pytorch_fn.py: Module: call():
mix_ops.py: MixedOp: call(): for idx, op in enumerate(self.children()):  2 Seq(
  (0): AvgPool2d(kernel_size=3, stride=2, padding=1)
  (1): BatchNorm2d(32, eps=1e-05, momentum=0.1, affine=False, track_running_stats=True)
) <class 'vega.modules.operators.conv.Seq'>
pytorch_fn.py: Module: forward(): call()
pytorch_fn.py: Module: call():
mix_ops.py: MixedOp: call(): for idx, op in enumerate(self.children()):  3 FactorizedReduce(
  (relu): Relu()
  (conv_1): Conv2d(32, 16, kernel_size=(1, 1), stride=(2, 2), bias=False)
  (conv_2): Conv2d(32, 16, kernel_size=(1, 1), stride=(2, 2), bias=False)
  (bn): BatchNorm2d(32, eps=1e-05, momentum=0.1, affine=False, track_running_stats=True)
) <class 'vega.modules.operators.conv.FactorizedReduce'>
pytorch_fn.py: Module: forward(): call()
mix_ops.py: MixedOp: call(): for idx, op in enumerate(self.children()):  4 SeparatedConv(
  (0_conv1): Conv2d(32, 32, kernel_size=(3, 3), stride=(2, 2), padding=(1, 1), groups=32, bias=False)
  (0_conv2): Conv2d(32, 32, kernel_size=(1, 1), stride=(1, 1), bias=False)
  (0_batch): BatchNorm2d(32, eps=1e-05, momentum=0.1, affine=False, track_running_stats=True)
  (0_relu): Relu()
) <class 'vega.modules.operators.conv.SeparatedConv'>
pytorch_fn.py: Module: forward(): call()
pytorch_fn.py: Module: call():
mix_ops.py: MixedOp: call(): for idx, op in enumerate(self.children()):  5 SeparatedConv(
  (0_conv1): Conv2d(32, 32, kernel_size=(5, 5), stride=(2, 2), padding=(2, 2), groups=32, bias=False)
  (0_conv2): Conv2d(32, 32, kernel_size=(1, 1), stride=(1, 1), bias=False)
  (0_batch): BatchNorm2d(32, eps=1e-05, momentum=0.1, affine=False, track_running_stats=True)
  (0_relu): Relu()
) <class 'vega.modules.operators.conv.SeparatedConv'>
pytorch_fn.py: Module: forward(): call()
pytorch_fn.py: Module: call():
mix_ops.py: MixedOp: call(): for idx, op in enumerate(self.children()):  6 DilConv(
  (relu): Relu()
  (conv1): Conv2d(32, 32, kernel_size=(3, 3), stride=(2, 2), padding=(2, 2), dilation=(2, 2), groups=32, bias=False)
  (conv2): Conv2d(32, 32, kernel_size=(1, 1), stride=(1, 1), bias=False)
  (batch): BatchNorm2d(32, eps=1e-05, momentum=0.1, affine=False, track_running_stats=True)
) <class 'vega.modules.operators.conv.DilConv'>
pytorch_fn.py: Module: forward(): call()
pytorch_fn.py: Module: call():
mix_ops.py: MixedOp: call(): for idx, op in enumerate(self.children()):  7 DilConv(
  (relu): Relu()
  (conv1): Conv2d(32, 32, kernel_size=(5, 5), stride=(2, 2), padding=(4, 4), dilation=(2, 2), groups=32, bias=False)
  (conv2): Conv2d(32, 32, kernel_size=(1, 1), stride=(1, 1), bias=False)
  (batch): BatchNorm2d(32, eps=1e-05, momentum=0.1, affine=False, track_running_stats=True)
) <class 'vega.modules.operators.conv.DilConv'>
pytorch_fn.py: Module: forward(): call()
pytorch_fn.py: Module: call():
cell.py: Cell: call(): j, inp:  1 1
cell.py: Cell: call(): op:  MixedOp(
  (none): Zero()
  (max_pool_3x3): Seq(
    (0): MaxPool2d(kernel_size=3, stride=2, padding=1, dilation=1, ceil_mode=False)
    (1): BatchNorm2d(32, eps=1e-05, momentum=0.1, affine=False, track_running_stats=True)
  )
  (avg_pool_3x3): Seq(
    (0): AvgPool2d(kernel_size=3, stride=2, padding=1)
    (1): BatchNorm2d(32, eps=1e-05, momentum=0.1, affine=False, track_running_stats=True)
  )
  (skip_connect): FactorizedReduce(
    (relu): Relu()
    (conv_1): Conv2d(32, 16, kernel_size=(1, 1), stride=(2, 2), bias=False)
    (conv_2): Conv2d(32, 16, kernel_size=(1, 1), stride=(2, 2), bias=False)
    (bn): BatchNorm2d(32, eps=1e-05, momentum=0.1, affine=False, track_running_stats=True)
  )
  (sep_conv_3x3): SeparatedConv(
    (0_conv1): Conv2d(32, 32, kernel_size=(3, 3), stride=(2, 2), padding=(1, 1), groups=32, bias=False)
    (0_conv2): Conv2d(32, 32, kernel_size=(1, 1), stride=(1, 1), bias=False)
    (0_batch): BatchNorm2d(32, eps=1e-05, momentum=0.1, affine=False, track_running_stats=True)
    (0_relu): Relu()
  )
  (sep_conv_5x5): SeparatedConv(
    (0_conv1): Conv2d(32, 32, kernel_size=(5, 5), stride=(2, 2), padding=(2, 2), groups=32, bias=False)
    (0_conv2): Conv2d(32, 32, kernel_size=(1, 1), stride=(1, 1), bias=False)
    (0_batch): BatchNorm2d(32, eps=1e-05, momentum=0.1, affine=False, track_running_stats=True)
    (0_relu): Relu()
  )
  (dil_conv_3x3): DilConv(
    (relu): Relu()
    (conv1): Conv2d(32, 32, kernel_size=(3, 3), stride=(2, 2), padding=(2, 2), dilation=(2, 2), groups=32, bias=False)
    (conv2): Conv2d(32, 32, kernel_size=(1, 1), stride=(1, 1), bias=False)
    (batch): BatchNorm2d(32, eps=1e-05, momentum=0.1, affine=False, track_running_stats=True)
  )
  (dil_conv_5x5): DilConv(
    (relu): Relu()
    (conv1): Conv2d(32, 32, kernel_size=(5, 5), stride=(2, 2), padding=(4, 4), dilation=(2, 2), groups=32, bias=False)
    (conv2): Conv2d(32, 32, kernel_size=(1, 1), stride=(1, 1), bias=False)
    (batch): BatchNorm2d(32, eps=1e-05, momentum=0.1, affine=False, track_running_stats=True)
  )
)
pytorch_fn.py: Module: forward(): call()
mix_ops.py: MixedOp: call(): for idx, op in enumerate(self.children()):  0 Zero() <class 'vega.modules.operators.functions.pytorch_fn.Zero'>
mix_ops.py: MixedOp: call(): for idx, op in enumerate(self.children()):  1 Seq(
  (0): MaxPool2d(kernel_size=3, stride=2, padding=1, dilation=1, ceil_mode=False)
  (1): BatchNorm2d(32, eps=1e-05, momentum=0.1, affine=False, track_running_stats=True)
) <class 'vega.modules.operators.conv.Seq'>
pytorch_fn.py: Module: forward(): call()
pytorch_fn.py: Module: call():
mix_ops.py: MixedOp: call(): for idx, op in enumerate(self.children()):  2 Seq(
  (0): AvgPool2d(kernel_size=3, stride=2, padding=1)
  (1): BatchNorm2d(32, eps=1e-05, momentum=0.1, affine=False, track_running_stats=True)
) <class 'vega.modules.operators.conv.Seq'>
pytorch_fn.py: Module: forward(): call()
pytorch_fn.py: Module: call():
mix_ops.py: MixedOp: call(): for idx, op in enumerate(self.children()):  3 FactorizedReduce(
  (relu): Relu()
  (conv_1): Conv2d(32, 16, kernel_size=(1, 1), stride=(2, 2), bias=False)
  (conv_2): Conv2d(32, 16, kernel_size=(1, 1), stride=(2, 2), bias=False)
  (bn): BatchNorm2d(32, eps=1e-05, momentum=0.1, affine=False, track_running_stats=True)
) <class 'vega.modules.operators.conv.FactorizedReduce'>
pytorch_fn.py: Module: forward(): call()
mix_ops.py: MixedOp: call(): for idx, op in enumerate(self.children()):  4 SeparatedConv(
  (0_conv1): Conv2d(32, 32, kernel_size=(3, 3), stride=(2, 2), padding=(1, 1), groups=32, bias=False)
  (0_conv2): Conv2d(32, 32, kernel_size=(1, 1), stride=(1, 1), bias=False)
  (0_batch): BatchNorm2d(32, eps=1e-05, momentum=0.1, affine=False, track_running_stats=True)
  (0_relu): Relu()
) <class 'vega.modules.operators.conv.SeparatedConv'>
pytorch_fn.py: Module: forward(): call()
pytorch_fn.py: Module: call():
mix_ops.py: MixedOp: call(): for idx, op in enumerate(self.children()):  5 SeparatedConv(
  (0_conv1): Conv2d(32, 32, kernel_size=(5, 5), stride=(2, 2), padding=(2, 2), groups=32, bias=False)
  (0_conv2): Conv2d(32, 32, kernel_size=(1, 1), stride=(1, 1), bias=False)
  (0_batch): BatchNorm2d(32, eps=1e-05, momentum=0.1, affine=False, track_running_stats=True)
  (0_relu): Relu()
) <class 'vega.modules.operators.conv.SeparatedConv'>
pytorch_fn.py: Module: forward(): call()
pytorch_fn.py: Module: call():
mix_ops.py: MixedOp: call(): for idx, op in enumerate(self.children()):  6 DilConv(
  (relu): Relu()
  (conv1): Conv2d(32, 32, kernel_size=(3, 3), stride=(2, 2), padding=(2, 2), dilation=(2, 2), groups=32, bias=False)
  (conv2): Conv2d(32, 32, kernel_size=(1, 1), stride=(1, 1), bias=False)
  (batch): BatchNorm2d(32, eps=1e-05, momentum=0.1, affine=False, track_running_stats=True)
) <class 'vega.modules.operators.conv.DilConv'>
pytorch_fn.py: Module: forward(): call()
pytorch_fn.py: Module: call():
mix_ops.py: MixedOp: call(): for idx, op in enumerate(self.children()):  7 DilConv(
  (relu): Relu()
  (conv1): Conv2d(32, 32, kernel_size=(5, 5), stride=(2, 2), padding=(4, 4), dilation=(2, 2), groups=32, bias=False)
  (conv2): Conv2d(32, 32, kernel_size=(1, 1), stride=(1, 1), bias=False)
  (batch): BatchNorm2d(32, eps=1e-05, momentum=0.1, affine=False, track_running_stats=True)
) <class 'vega.modules.operators.conv.DilConv'>
pytorch_fn.py: Module: forward(): call()
pytorch_fn.py: Module: call():
cell.py: Cell: call(): j, inp:  2 2
cell.py: Cell: call(): op:  MixedOp(
  (none): Zero()
  (max_pool_3x3): Seq(
    (0): MaxPool2d(kernel_size=3, stride=1, padding=1, dilation=1, ceil_mode=False)
    (1): BatchNorm2d(32, eps=1e-05, momentum=0.1, affine=False, track_running_stats=True)
  )
  (avg_pool_3x3): Seq(
    (0): AvgPool2d(kernel_size=3, stride=1, padding=1)
    (1): BatchNorm2d(32, eps=1e-05, momentum=0.1, affine=False, track_running_stats=True)
  )
  (skip_connect): Identity()
  (sep_conv_3x3): SeparatedConv(
    (0_conv1): Conv2d(32, 32, kernel_size=(3, 3), stride=(1, 1), padding=(1, 1), groups=32, bias=False)
    (0_conv2): Conv2d(32, 32, kernel_size=(1, 1), stride=(1, 1), bias=False)
    (0_batch): BatchNorm2d(32, eps=1e-05, momentum=0.1, affine=False, track_running_stats=True)
    (0_relu): Relu()
  )
  (sep_conv_5x5): SeparatedConv(
    (0_conv1): Conv2d(32, 32, kernel_size=(5, 5), stride=(1, 1), padding=(2, 2), groups=32, bias=False)
    (0_conv2): Conv2d(32, 32, kernel_size=(1, 1), stride=(1, 1), bias=False)
    (0_batch): BatchNorm2d(32, eps=1e-05, momentum=0.1, affine=False, track_running_stats=True)
    (0_relu): Relu()
  )
  (dil_conv_3x3): DilConv(
    (relu): Relu()
    (conv1): Conv2d(32, 32, kernel_size=(3, 3), stride=(1, 1), padding=(2, 2), dilation=(2, 2), groups=32, bias=False)
    (conv2): Conv2d(32, 32, kernel_size=(1, 1), stride=(1, 1), bias=False)
    (batch): BatchNorm2d(32, eps=1e-05, momentum=0.1, affine=False, track_running_stats=True)
  )
  (dil_conv_5x5): DilConv(
    (relu): Relu()
    (conv1): Conv2d(32, 32, kernel_size=(5, 5), stride=(1, 1), padding=(4, 4), dilation=(2, 2), groups=32, bias=False)
    (conv2): Conv2d(32, 32, kernel_size=(1, 1), stride=(1, 1), bias=False)
    (batch): BatchNorm2d(32, eps=1e-05, momentum=0.1, affine=False, track_running_stats=True)
  )
)
pytorch_fn.py: Module: forward(): call()
mix_ops.py: MixedOp: call(): for idx, op in enumerate(self.children()):  0 Zero() <class 'vega.modules.operators.functions.pytorch_fn.Zero'>
mix_ops.py: MixedOp: call(): for idx, op in enumerate(self.children()):  1 Seq(
  (0): MaxPool2d(kernel_size=3, stride=1, padding=1, dilation=1, ceil_mode=False)
  (1): BatchNorm2d(32, eps=1e-05, momentum=0.1, affine=False, track_running_stats=True)
) <class 'vega.modules.operators.conv.Seq'>
pytorch_fn.py: Module: forward(): call()
pytorch_fn.py: Module: call():
mix_ops.py: MixedOp: call(): for idx, op in enumerate(self.children()):  2 Seq(
  (0): AvgPool2d(kernel_size=3, stride=1, padding=1)
  (1): BatchNorm2d(32, eps=1e-05, momentum=0.1, affine=False, track_running_stats=True)
) <class 'vega.modules.operators.conv.Seq'>
pytorch_fn.py: Module: forward(): call()
pytorch_fn.py: Module: call():
mix_ops.py: MixedOp: call(): for idx, op in enumerate(self.children()):  3 Identity() <class 'vega.modules.operators.functions.pytorch_fn.Identity'>
mix_ops.py: MixedOp: call(): for idx, op in enumerate(self.children()):  4 SeparatedConv(
  (0_conv1): Conv2d(32, 32, kernel_size=(3, 3), stride=(1, 1), padding=(1, 1), groups=32, bias=False)
  (0_conv2): Conv2d(32, 32, kernel_size=(1, 1), stride=(1, 1), bias=False)
  (0_batch): BatchNorm2d(32, eps=1e-05, momentum=0.1, affine=False, track_running_stats=True)
  (0_relu): Relu()
) <class 'vega.modules.operators.conv.SeparatedConv'>
pytorch_fn.py: Module: forward(): call()
pytorch_fn.py: Module: call():
mix_ops.py: MixedOp: call(): for idx, op in enumerate(self.children()):  5 SeparatedConv(
  (0_conv1): Conv2d(32, 32, kernel_size=(5, 5), stride=(1, 1), padding=(2, 2), groups=32, bias=False)
  (0_conv2): Conv2d(32, 32, kernel_size=(1, 1), stride=(1, 1), bias=False)
  (0_batch): BatchNorm2d(32, eps=1e-05, momentum=0.1, affine=False, track_running_stats=True)
  (0_relu): Relu()
) <class 'vega.modules.operators.conv.SeparatedConv'>
pytorch_fn.py: Module: forward(): call()
pytorch_fn.py: Module: call():
mix_ops.py: MixedOp: call(): for idx, op in enumerate(self.children()):  6 DilConv(
  (relu): Relu()
  (conv1): Conv2d(32, 32, kernel_size=(3, 3), stride=(1, 1), padding=(2, 2), dilation=(2, 2), groups=32, bias=False)
  (conv2): Conv2d(32, 32, kernel_size=(1, 1), stride=(1, 1), bias=False)
  (batch): BatchNorm2d(32, eps=1e-05, momentum=0.1, affine=False, track_running_stats=True)
) <class 'vega.modules.operators.conv.DilConv'>
pytorch_fn.py: Module: forward(): call()
pytorch_fn.py: Module: call():
mix_ops.py: MixedOp: call(): for idx, op in enumerate(self.children()):  7 DilConv(
  (relu): Relu()
  (conv1): Conv2d(32, 32, kernel_size=(5, 5), stride=(1, 1), padding=(4, 4), dilation=(2, 2), groups=32, bias=False)
  (conv2): Conv2d(32, 32, kernel_size=(1, 1), stride=(1, 1), bias=False)
  (batch): BatchNorm2d(32, eps=1e-05, momentum=0.1, affine=False, track_running_stats=True)
) <class 'vega.modules.operators.conv.DilConv'>
pytorch_fn.py: Module: forward(): call()
pytorch_fn.py: Module: call():
cell.py: Cell: call(): j, inp:  3 3
cell.py: Cell: call(): op:  MixedOp(
  (none): Zero()
  (max_pool_3x3): Seq(
    (0): MaxPool2d(kernel_size=3, stride=1, padding=1, dilation=1, ceil_mode=False)
    (1): BatchNorm2d(32, eps=1e-05, momentum=0.1, affine=False, track_running_stats=True)
  )
  (avg_pool_3x3): Seq(
    (0): AvgPool2d(kernel_size=3, stride=1, padding=1)
    (1): BatchNorm2d(32, eps=1e-05, momentum=0.1, affine=False, track_running_stats=True)
  )
  (skip_connect): Identity()
  (sep_conv_3x3): SeparatedConv(
    (0_conv1): Conv2d(32, 32, kernel_size=(3, 3), stride=(1, 1), padding=(1, 1), groups=32, bias=False)
    (0_conv2): Conv2d(32, 32, kernel_size=(1, 1), stride=(1, 1), bias=False)
    (0_batch): BatchNorm2d(32, eps=1e-05, momentum=0.1, affine=False, track_running_stats=True)
    (0_relu): Relu()
  )
  (sep_conv_5x5): SeparatedConv(
    (0_conv1): Conv2d(32, 32, kernel_size=(5, 5), stride=(1, 1), padding=(2, 2), groups=32, bias=False)
    (0_conv2): Conv2d(32, 32, kernel_size=(1, 1), stride=(1, 1), bias=False)
    (0_batch): BatchNorm2d(32, eps=1e-05, momentum=0.1, affine=False, track_running_stats=True)
    (0_relu): Relu()
  )
  (dil_conv_3x3): DilConv(
    (relu): Relu()
    (conv1): Conv2d(32, 32, kernel_size=(3, 3), stride=(1, 1), padding=(2, 2), dilation=(2, 2), groups=32, bias=False)
    (conv2): Conv2d(32, 32, kernel_size=(1, 1), stride=(1, 1), bias=False)
    (batch): BatchNorm2d(32, eps=1e-05, momentum=0.1, affine=False, track_running_stats=True)
  )
  (dil_conv_5x5): DilConv(
    (relu): Relu()
    (conv1): Conv2d(32, 32, kernel_size=(5, 5), stride=(1, 1), padding=(4, 4), dilation=(2, 2), groups=32, bias=False)
    (conv2): Conv2d(32, 32, kernel_size=(1, 1), stride=(1, 1), bias=False)
    (batch): BatchNorm2d(32, eps=1e-05, momentum=0.1, affine=False, track_running_stats=True)
  )
)
pytorch_fn.py: Module: forward(): call()
mix_ops.py: MixedOp: call(): for idx, op in enumerate(self.children()):  0 Zero() <class 'vega.modules.operators.functions.pytorch_fn.Zero'>
mix_ops.py: MixedOp: call(): for idx, op in enumerate(self.children()):  1 Seq(
  (0): MaxPool2d(kernel_size=3, stride=1, padding=1, dilation=1, ceil_mode=False)
  (1): BatchNorm2d(32, eps=1e-05, momentum=0.1, affine=False, track_running_stats=True)
) <class 'vega.modules.operators.conv.Seq'>
pytorch_fn.py: Module: forward(): call()
pytorch_fn.py: Module: call():
mix_ops.py: MixedOp: call(): for idx, op in enumerate(self.children()):  2 Seq(
  (0): AvgPool2d(kernel_size=3, stride=1, padding=1)
  (1): BatchNorm2d(32, eps=1e-05, momentum=0.1, affine=False, track_running_stats=True)
) <class 'vega.modules.operators.conv.Seq'>
pytorch_fn.py: Module: forward(): call()
pytorch_fn.py: Module: call():
mix_ops.py: MixedOp: call(): for idx, op in enumerate(self.children()):  3 Identity() <class 'vega.modules.operators.functions.pytorch_fn.Identity'>
mix_ops.py: MixedOp: call(): for idx, op in enumerate(self.children()):  4 SeparatedConv(
  (0_conv1): Conv2d(32, 32, kernel_size=(3, 3), stride=(1, 1), padding=(1, 1), groups=32, bias=False)
  (0_conv2): Conv2d(32, 32, kernel_size=(1, 1), stride=(1, 1), bias=False)
  (0_batch): BatchNorm2d(32, eps=1e-05, momentum=0.1, affine=False, track_running_stats=True)
  (0_relu): Relu()
) <class 'vega.modules.operators.conv.SeparatedConv'>
pytorch_fn.py: Module: forward(): call()
pytorch_fn.py: Module: call():
mix_ops.py: MixedOp: call(): for idx, op in enumerate(self.children()):  5 SeparatedConv(
  (0_conv1): Conv2d(32, 32, kernel_size=(5, 5), stride=(1, 1), padding=(2, 2), groups=32, bias=False)
  (0_conv2): Conv2d(32, 32, kernel_size=(1, 1), stride=(1, 1), bias=False)
  (0_batch): BatchNorm2d(32, eps=1e-05, momentum=0.1, affine=False, track_running_stats=True)
  (0_relu): Relu()
) <class 'vega.modules.operators.conv.SeparatedConv'>
pytorch_fn.py: Module: forward(): call()
pytorch_fn.py: Module: call():
mix_ops.py: MixedOp: call(): for idx, op in enumerate(self.children()):  6 DilConv(
  (relu): Relu()
  (conv1): Conv2d(32, 32, kernel_size=(3, 3), stride=(1, 1), padding=(2, 2), dilation=(2, 2), groups=32, bias=False)
  (conv2): Conv2d(32, 32, kernel_size=(1, 1), stride=(1, 1), bias=False)
  (batch): BatchNorm2d(32, eps=1e-05, momentum=0.1, affine=False, track_running_stats=True)
) <class 'vega.modules.operators.conv.DilConv'>
pytorch_fn.py: Module: forward(): call()
pytorch_fn.py: Module: call():
mix_ops.py: MixedOp: call(): for idx, op in enumerate(self.children()):  7 DilConv(
  (relu): Relu()
  (conv1): Conv2d(32, 32, kernel_size=(5, 5), stride=(1, 1), padding=(4, 4), dilation=(2, 2), groups=32, bias=False)
  (conv2): Conv2d(32, 32, kernel_size=(1, 1), stride=(1, 1), bias=False)
  (batch): BatchNorm2d(32, eps=1e-05, momentum=0.1, affine=False, track_running_stats=True)
) <class 'vega.modules.operators.conv.DilConv'>
pytorch_fn.py: Module: forward(): call()
pytorch_fn.py: Module: call():
cell.py: Cell: call(): j, inp:  4 4
cell.py: Cell: call(): op:  MixedOp(
  (none): Zero()
  (max_pool_3x3): Seq(
    (0): MaxPool2d(kernel_size=3, stride=1, padding=1, dilation=1, ceil_mode=False)
    (1): BatchNorm2d(32, eps=1e-05, momentum=0.1, affine=False, track_running_stats=True)
  )
  (avg_pool_3x3): Seq(
    (0): AvgPool2d(kernel_size=3, stride=1, padding=1)
    (1): BatchNorm2d(32, eps=1e-05, momentum=0.1, affine=False, track_running_stats=True)
  )
  (skip_connect): Identity()
  (sep_conv_3x3): SeparatedConv(
    (0_conv1): Conv2d(32, 32, kernel_size=(3, 3), stride=(1, 1), padding=(1, 1), groups=32, bias=False)
    (0_conv2): Conv2d(32, 32, kernel_size=(1, 1), stride=(1, 1), bias=False)
    (0_batch): BatchNorm2d(32, eps=1e-05, momentum=0.1, affine=False, track_running_stats=True)
    (0_relu): Relu()
  )
  (sep_conv_5x5): SeparatedConv(
    (0_conv1): Conv2d(32, 32, kernel_size=(5, 5), stride=(1, 1), padding=(2, 2), groups=32, bias=False)
    (0_conv2): Conv2d(32, 32, kernel_size=(1, 1), stride=(1, 1), bias=False)
    (0_batch): BatchNorm2d(32, eps=1e-05, momentum=0.1, affine=False, track_running_stats=True)
    (0_relu): Relu()
  )
  (dil_conv_3x3): DilConv(
    (relu): Relu()
    (conv1): Conv2d(32, 32, kernel_size=(3, 3), stride=(1, 1), padding=(2, 2), dilation=(2, 2), groups=32, bias=False)
    (conv2): Conv2d(32, 32, kernel_size=(1, 1), stride=(1, 1), bias=False)
    (batch): BatchNorm2d(32, eps=1e-05, momentum=0.1, affine=False, track_running_stats=True)
  )
  (dil_conv_5x5): DilConv(
    (relu): Relu()
    (conv1): Conv2d(32, 32, kernel_size=(5, 5), stride=(1, 1), padding=(4, 4), dilation=(2, 2), groups=32, bias=False)
    (conv2): Conv2d(32, 32, kernel_size=(1, 1), stride=(1, 1), bias=False)
    (batch): BatchNorm2d(32, eps=1e-05, momentum=0.1, affine=False, track_running_stats=True)
  )
)
pytorch_fn.py: Module: forward(): call()
mix_ops.py: MixedOp: call(): for idx, op in enumerate(self.children()):  0 Zero() <class 'vega.modules.operators.functions.pytorch_fn.Zero'>
mix_ops.py: MixedOp: call(): for idx, op in enumerate(self.children()):  1 Seq(
  (0): MaxPool2d(kernel_size=3, stride=1, padding=1, dilation=1, ceil_mode=False)
  (1): BatchNorm2d(32, eps=1e-05, momentum=0.1, affine=False, track_running_stats=True)
) <class 'vega.modules.operators.conv.Seq'>
pytorch_fn.py: Module: forward(): call()
pytorch_fn.py: Module: call():
mix_ops.py: MixedOp: call(): for idx, op in enumerate(self.children()):  2 Seq(
  (0): AvgPool2d(kernel_size=3, stride=1, padding=1)
  (1): BatchNorm2d(32, eps=1e-05, momentum=0.1, affine=False, track_running_stats=True)
) <class 'vega.modules.operators.conv.Seq'>
pytorch_fn.py: Module: forward(): call()
pytorch_fn.py: Module: call():
mix_ops.py: MixedOp: call(): for idx, op in enumerate(self.children()):  3 Identity() <class 'vega.modules.operators.functions.pytorch_fn.Identity'>
mix_ops.py: MixedOp: call(): for idx, op in enumerate(self.children()):  4 SeparatedConv(
  (0_conv1): Conv2d(32, 32, kernel_size=(3, 3), stride=(1, 1), padding=(1, 1), groups=32, bias=False)
  (0_conv2): Conv2d(32, 32, kernel_size=(1, 1), stride=(1, 1), bias=False)
  (0_batch): BatchNorm2d(32, eps=1e-05, momentum=0.1, affine=False, track_running_stats=True)
  (0_relu): Relu()
) <class 'vega.modules.operators.conv.SeparatedConv'>
pytorch_fn.py: Module: forward(): call()
pytorch_fn.py: Module: call():
mix_ops.py: MixedOp: call(): for idx, op in enumerate(self.children()):  5 SeparatedConv(
  (0_conv1): Conv2d(32, 32, kernel_size=(5, 5), stride=(1, 1), padding=(2, 2), groups=32, bias=False)
  (0_conv2): Conv2d(32, 32, kernel_size=(1, 1), stride=(1, 1), bias=False)
  (0_batch): BatchNorm2d(32, eps=1e-05, momentum=0.1, affine=False, track_running_stats=True)
  (0_relu): Relu()
) <class 'vega.modules.operators.conv.SeparatedConv'>
pytorch_fn.py: Module: forward(): call()
pytorch_fn.py: Module: call():
mix_ops.py: MixedOp: call(): for idx, op in enumerate(self.children()):  6 DilConv(
  (relu): Relu()
  (conv1): Conv2d(32, 32, kernel_size=(3, 3), stride=(1, 1), padding=(2, 2), dilation=(2, 2), groups=32, bias=False)
  (conv2): Conv2d(32, 32, kernel_size=(1, 1), stride=(1, 1), bias=False)
  (batch): BatchNorm2d(32, eps=1e-05, momentum=0.1, affine=False, track_running_stats=True)
) <class 'vega.modules.operators.conv.DilConv'>
pytorch_fn.py: Module: forward(): call()
pytorch_fn.py: Module: call():
mix_ops.py: MixedOp: call(): for idx, op in enumerate(self.children()):  7 DilConv(
  (relu): Relu()
  (conv1): Conv2d(32, 32, kernel_size=(5, 5), stride=(1, 1), padding=(4, 4), dilation=(2, 2), groups=32, bias=False)
  (conv2): Conv2d(32, 32, kernel_size=(1, 1), stride=(1, 1), bias=False)
  (batch): BatchNorm2d(32, eps=1e-05, momentum=0.1, affine=False, track_running_stats=True)
) <class 'vega.modules.operators.conv.DilConv'>
pytorch_fn.py: Module: forward(): call()
pytorch_fn.py: Module: call():
super_network.py: DartsNetwork: call(): i:  3 <class 'vega.modules.operators.cell.NormalCell'>
pytorch_fn.py: Module: forward(): call()
cell.py: Cell: call(): Cell call self.steps:  4
cell.py: Cell: call(): Cell call out_inp_list:  [[0, 1], [0, 1, 2], [0, 1, 2, 3], [0, 1, 2, 3, 4]]
…
